faster_whisper/assets/silero_encoder_v5.onnx (onnx, 713415 bytes, 9 tensors)

feature_extractor.forward_basis_buffer f4 [258, 1, 256]
00000000: 0000 0000 dfe7 1d39 c8e1 1d3a 9892 b13a
00000010: 71c9 1d3b 3c6e 763b 0255 b13b 0b36 f13b
00000020: 3068 1d3c 540c 473c 0481 753c 8c5f 943c
00000030: 555f b03c 8abb ce3c 7e6f ef3c 123b 093d
00000040: 0ce5 1b3d ccb2 2f3d 43a1 443d 38ad 5a3d
00000050: 44d3 713d ea07 853d 97af 913d b5de 9e3d
00000060: 3b93 ac3d 0ccb ba3d f783 c93d b7bb d83d
00000070: f36f e83d 3f9e f83d 0ea2 043e 7d2f 0d3e
00000080: 1af6 153e 8bf4 1e3e 6d29 283e 5493 313e
00000090: ce30 3b3e 5d00 453e 8000 4f3e ab2f 593e
000000a0: 4c8c 633e cb14 6e3e 86c7 783e 6dd1 813e
000000b0: 8b52 873e 46e6 8c3e c08b 923e 1b42 983e
000000c0: 7508 9e3e ebdd a33e 96c1 a93e 8eb2 af3e
000000d0: e7af b53e b6b8 bb3e 0dcc c13e fbe8 c73e
000000e0: 900e ce3e d73b d43e df6f da3e b2a9 e03e
000000f0: 59e8 e63e df2a ed3e 4d70 f33e abb7 f93e
00000100: 0000 003f 2b24 033f d947 063f 906a 093f
00000110: d38b 0c3f 27ab 0f3f 10c8 123f 14e2 153f
00000120: b8f8 183f 820b 1c3f f919 1f3f a523 223f
00000130: 0c28 253f b926 283f 351f 2b3f 0a11 2e3f
00000140: c5fb 303f f3de 333f 20ba 363f dd8c 393f
00000150: ba56 3c3f 4a17 3f3f 1ece 413f cd7a 443f
00000160: ed1c 473f 15b4 493f e03f 4c3f e9bf 4e3f
00000170: cd33 513f 2b9b 533f a5f5 553f dd42 583f
00000180: 7a82 5a3f 21b4 5c3f 7dd7 5e3f 38ec 603f
00000190: 02f2 623f 89e8 643f 81cf 663f 9fa6 683f
000001a0: 996d 6a3f 2924 6c3f 0dca 6d3f 035f 6f3f
000001b0: cce2 703f 2d55 723f ecb5 733f d304 753f
000001c0: af41 763f 4f6c 773f 8484 783f 248a 793f
000001d0: 057d 7a3f 045d 7b3f fc29 7c3f cfe3 7c3f
000001e0: 5f8a 7d3f 941d 7e3f 569d 7e3f 9209 7f3f
000001f0: 3762 7f3f 37a7 7f3f 88d8 7f3f 22f6 7f3f
00000200: 0000 803f 22f6 7f3f 88d8 7f3f 37a7 7f3f
00000210: 3762 7f3f 9209 7f3f 569d 7e3f 941d 7e3f
00000220: 5f8a 7d3f cfe3 7c3f fc29 7c3f 045d 7b3f
00000230: 057d 7a3f 248a 793f 8484 783f 4f6c 773f
00000240: af41 763f d304 753f ecb5 733f 2d55 723f
00000250: cce2 703f 035f 6f3f 0dca 6d3f 2924 6c3f
00000260: 996d 6a3f 9fa6 683f 81cf 663f 89e8 643f
00000270: 02f2 623f 38ec 603f 7dd7 5e3f 21b4 5c3f
00000280: 7a82 5a3f dd42 583f a5f5 553f 2b9b 533f
00000290: cd33 513f e9bf 4e3f e03f 4c3f 15b4 493f
000002a0: ed1c 473f cd7a 443f 1ece 413f 4a17 3f3f
000002b0: ba56 3c3f dd8c 393f 20ba 363f f3de 333f
000002c0: c5fb 303f 0a11 2e3f 351f 2b3f b926 283f
000002d0: 0c28 253f a523 223f f919 1f3f 820b 1c3f
000002e0: b8f8 183f 14e2 153f 10c8 123f 27ab 0f3f
000002f0: d38b 0c3f 906a 093f d947 063f 2b24 033f
00000300: 0000 003f abb7 f93e 4d70 f33e df2a ed3e
00000310: 59e8 e63e b2a9 e03e df6f da3e d73b d43e
00000320: 900e ce3e fbe8 c73e 0dcc c13e b6b8 bb3e
00000330: e7af b53e 8eb2 af3e 96c1 a93e ebdd a33e
00000340: 7508 9e3e 1b42 983e c08b 923e 46e6 8c3e
00000350: 8b52 873e 6dd1 813e 86c7 783e cb14 6e3e
00000360: 4c8c 633e ab2f 593e 8000 4f3e 5d00 453e
00000370: ce30 3b3e 5493 313e 6d29 283e 8bf4 1e3e
00000380: 1af6 153e 7d2f 0d3e 0ea2 043e 3f9e f83d
00000390: f36f e83d b7bb d83d f783 c93d 0ccb ba3d
000003a0: 3b93 ac3d b5de 9e3d 97af 913d ea07 853d
000003b0: 44d3 713d 38ad 5a3d 43a1 443d ccb2 2f3d
000003c0: 0ce5 1b3d 123b 093d 7e6f ef3c 8abb ce3c
000003d0: 555f b03c 8c5f 943c 0481 753c 540c 473c
000003e0: 3068 1d3c 0b36 f13b 0255 b13b 3c6e 763b
000003f0: 71c9 1d3b 9892 b13a c8e1 1d3a dfe7 1d39
0.0 0.00015059065 0.0006022719 0.0013547717 0.0024076367 0.0037602326 0.005411745 0.0073611788
0.00960736 0.012148935 0.014984373 0.018111967 0.021529833 0.02523591 0.029227968 0.0335036
0.038060233 0.042895123 0.048005354 0.05338785 0.05903937 0.0649565 0.07113569 0.07757322
0.084265195 0.09120759 0.098396234 0.10582679 0.113494776 0.12139558 0.12952444 0.13787647
0.14644662 0.15522973 0.16422053 0.17341357 0.18280336 0.1923842 0.20215034 0.2120959
0.22221488 0.2325012 0.24294862 0.25355092 0.26430163 0.27519435 0.28622246 0.29737934
0.30865827 0.32005247 0.33155507 0.34315914 0.35485765 0.3666436 0.3785099 0.39044937
0.40245485 0.41451904 0.42663476 0.43879467 0.45099142 0.4632177 0.47546616 0.4877294
0.5 0.5122706 0.5245338 0.53678226 0.54900855 0.5612053 0.5733652 0.5854809
0.59754515 0.6095506 0.62149006 0.6333564 0.6451423 0.65684086 0.66844493 0.6799475
0.6913417 0.7026207 0.71377754 0.72480565 0.73569834 0.7464491 0.75705135 0.7674988
0.7777851 0.7879041 0.79784966 0.8076158 0.81719667 0.8265864 0.8357795 0.84477025
0.8535534 0.86212355 0.8704756 0.8786044 0.88650525 0.8941732 0.90160376 0.90879244
0.9157348 0.92242676 0.9288643 0.9350435 0.94096065 0.9466122 0.95199466 0.95710486
0.96193975 0.9664964 0.970772 0.9747641 0.97847015 0.98188806 0.98501563 0.9878511
0.9903926 0.9926388 0.99458826 0.9962398 0.9975924 0.99864525 0.99939775 0.99984944
1.0 0.99984944 0.99939775 0.99864525 0.9975924 0.9962398 0.99458826 0.9926388
0.9903926 0.9878511 0.98501563 0.98188806 0.97847015 0.9747641 0.970772 0.9664964
0.96193975 0.95710486 0.95199466 0.9466122 0.94096065 0.9350435 0.9288643 0.92242676
0.9157348 0.90879244 0.90160376 0.8941732 0.88650525 0.8786044 0.8704756 0.86212355
0.8535534 0.84477025 0.8357795 0.8265864 0.81719667 0.8076158 0.79784966 0.7879041
0.7777851 0.7674988 0.75705135 0.7464491 0.73569834 0.72480565 0.71377754 0.7026207
0.6913417 0.6799475 0.66844493 0.65684086 0.6451423 0.6333564 0.62149006 0.6095506
0.59754515 0.5854809 0.5733652 0.5612053 0.54900855 0.53678226 0.5245338 0.5122706
0.5 0.4877294 0.47546616 0.4632177 0.45099142 0.43879467 0.42663476 0.41451904
0.40245485 0.39044937 0.3785099 0.3666436 0.35485765 0.34315914 0.33155507 0.32005247
0.30865827 0.29737934 0.28622246 0.27519435 0.26430163 0.25355092 0.24294862 0.2325012
0.22221488 0.2120959 0.20215034 0.1923842 0.18280336 0.17341357 0.16422053 0.15522973
0.14644662 0.13787647 0.12952444 0.12139558 0.113494776 0.10582679 0.098396234 0.09120759
0.084265195 0.07757322 0.07113569 0.0649565 0.05903937 0.05338785 0.048005354 0.042895123
0.038060233 0.0335036 0.029227968 0.02523591 0.021529833 0.018111967 0.014984373 0.012148935
0.00960736 0.0073611788 0.005411745 0.0037602326 0.0024076367 0.0013547717 0.0006022719 0.00015059065

conv0.weight f4 [128, 129, 3]
00000000: 0ae8 bc3c 34d0 193d 946a c9ba add4 673d
00000010: b3f5 bb3d aa49 843d 4c45 25bd 9290 273d
00000020: cf75 93bd 3129 03be 3f57 c83d 1431 1f3d
00000030: 88de bb3c 6334 d03d 2cea 2ebc e094 deba
00000040: de35 67bd f241 ecbd a067 933a 26fe b73d
00000050: ddc1 23bc f047 19bd 08b3 283e 4c98 abbd
00000060: 82f4 09be 7237 943d 18e3 5b3c d401 6c3c
00000070: bd72 0b3e 2074 b2bb 38b3 4d3c 0acf 563d
00000080: a0d9 62bd 9015 10be 0680 4d3e 862b 0a3d
00000090: 22b9 b1bd f504 573e ac0f 67bb fc05 01bc
000000a0: 145f 843e 0fce d53c 1c57 d3bc 1ece 3e3e
000000b0: aa5f d73b d3e6 24be d2a9 563e 5781 dabd
000000c0: e661 59bd 9495 6d3d 2839 7cbe ef82 82be
000000d0: 7506 72be 6ccf 99be 89bd b7be ec92 d1be
000000e0: 8001 0cbf a7b9 44be 6ac2 cebe d6f1 33bf
000000f0: e05e 86be e681 3cbe edf0 11bf eb85 d0be
00000100: fa35 89be 3afa 2dbf d89d 8fbe 765c 87bd
00000110: eda6 91be 4d40 33bd 123a 213d 3e52 22be
00000120: c390 7d3d 1e83 e23d 7682 32be 8a44 943d
00000130: d40b eb3d 79ee 18be 49b6 37bd f4a1 713e
00000140: 8cc4 253d c09e 8f3d dc30 a13e 06ed 1a3c
00000150: 02b8 013e 327d 383e 0061 17bd f85d e13d
00000160: 7319 5f3c 8f3e 99bd afdf c83d 933b e63d
00000170: 8968 95bc b0ee 723d ccff 953e 036d 4abd
00000180: 9857 a13d 9ad3 613e 239c 0cbe 79f9 923d
00000190: d29e 423e f66a 51bd 9abd ff3d 8a4e 183e
000001a0: cea5 4d3d 814a 54bc c651 613d 268a ca3c
000001b0: 8a96 483d 7afd 163e 8afd 1f3d 6c30 1b3e
000001c0: 5280 153e 2a72 ec3c 885e a93d 98a8 363e
000001d0: aa22 aabc c65c 333e e895 943e 3569 cebd
000001e0: a661 de3d 7a37 493e 6717 a9bd ddd6 133e
000001f0: 20b5 953e 51e2 39bd 31d4 0b3e 184d 433e
00000200: c442 48be b793 943d ed0b e53d b291 d1bd
00000210: b38c be3d 5095 b03d c573 21be 3c3c 6e3d
00000220: 6e2c 123e 9722 30be ad88 e53d 5e13 2f3e
00000230: 372d 50bd 7c58 1f3e 6678 ba3d 3021 ffba
00000240: e92a 623d c1fa be3d c78a 043c 743d c93d
00000250: 94b5 203e 9e5b 9fbb b92f 3d3e f67c 843e
00000260: 68c1 94be 3dab 003e 3c12 013e 918d 96be
00000270: eef5 103e f086 403e bfdb 42be 10ae 363e
00000280: d582 633e 744a 61be 1505 983d 1cd5 023e
00000290: ce11 3abe f5c5 a63d 36ed 233e 74c5 cdbd
000002a0: 8875 1e3e 422e 593e f9c5 09be 89ab 573d
000002b0: d3a9 813e 88a4 87be 02d8 143d d64c 743e
000002c0: 08d8 8dbe 3113 ef3c 0943 883e 2b94 84be
000002d0: 07db cc3d 0b9d 813e ba96 7ebe 4ec1 2a3e
000002e0: c040 903e 1e71 5bbe 625a 003e 92ae a33e
000002f0: 1916 e5bd 9b23 2f3d f5c1 853e eba5 bbbd
00000300: 0271 9c3d c0a9 ad3e e476 7c3d 586a 103e
00000310: 0363 a43e 0b44 823c f588 8e3e 4296 ea3e
00000320: 0ecc 013e 0085 ba3e 1ac7 c43e 947d 273e
00000330: 0774 983e f25f 093f 4574 8d3e b21c d23e
00000340: 2c4e 1c3f a04d 723e b685 a53e 4dd0 cd3e
00000350: 0edc ec3d 6f59 603e 1d11 3c3e d8dc a43d
00000360: 592e ab3e 3126 883e c3a9 403e f2d5 0a3f
00000370: 2083 073f 02e3 7b3e 5f8b e13e 1c69 e23e
00000380: c415 243e 749a f93e 8cd3 be3e c685 d83d
00000390: 928f fb3e 1243 033e 5378 81bc 17df be3e
000003a0: da3a 0ebe b344 a8be 703d 5f3e 7264 bdbe
000003b0: ad94 f1be babf 083e 7a02 52bf caa4 2ebf
000003c0: 66f9 93bd 43e6 8fbf f814 82bf de32 1bbe
000003d0: 3357 8cbf 0e07 75bf 7a70 53bc a4d1 81bf
000003e0: 725e 65bf d2ac 6dbd c491 6fbf de8b 62bf
000003f0: c6ef ddbd c03a 8dbf 2679 5cbf 3d3a 0cbe
0.023059864 0.037552074 -0.0015366846 0.056599308 0.09177723 0.06459363 -0.04034929 0.040909357
-0.072002046 -0.12808682 0.09782266 0.038865164 0.02293326 0.10166242 -0.010675948 -0.0016981624
-0.056447856 -0.115360156 0.0011246093 0.08984022 -0.009994951 -0.03742212 0.16474545 -0.08378658
-0.13472179 0.07237138 0.013420843 0.014404733 0.13617988 -0.005445972 0.012554936 0.05244354
-0.055383325 -0.14070725 0.20068368 0.033732913 -0.086778894 0.20997985 -0.0035257144 -0.007874962
0.2585379 0.026099233 -0.025798373 0.18633315 0.0065726833 -0.16103677 0.20963219 -0.10669201
-0.05307188 0.058003977 -0.24631178 -0.2549052 -0.23635276 -0.30041063 -0.3588679 -0.40932405
-0.5468979 -0.19211446 -0.403827 -0.7029089 -0.2624426 -0.18408927 -0.5700825 -0.4072717
-0.26798993 -0.6795994 -0.28050113 -0.066094324 -0.28447667 -0.043762494 0.03936202 -0.15851685
0.061905634 0.11060165 -0.1743258 0.07239635 0.114768654 -0.1493472 -0.044851575 0.23596936
0.040470645 0.07012701 0.3148259 0.009455925 0.1266785 0.18016508 -0.03695774 0.11004251
0.013616907 -0.07482635 0.09808289 0.11241832 -0.018238323 0.05930966 0.2929672 -0.049420368
0.07878035 0.22053376 -0.13731436 0.071764894 0.19005898 -0.051127397 0.124873355 0.1487371
0.05020695 -0.012957216 0.055009626 0.024724077 0.04897169 0.14745131 0.039060153 0.1515519
0.14599732 0.028863031 0.082699835 0.17837751 -0.020768482 0.17515859 0.2902062 -0.100786604
0.10858469 0.19650069 -0.08256417 0.14437433 0.2923975 -0.045381848 0.13655163 0.19072378
-0.19556719 0.07254737 0.11183915 -0.10232867 0.0930418 0.08622229 -0.15766819 0.058162913
0.14274761 -0.17200695 0.112077095 0.17097232 -0.05082437 0.15561098 0.091049954 -0.0019464847
0.055216704 0.09325171 0.008089728 0.098261744 0.15694267 -0.0048632165 0.18475236 0.25876588
-0.29053807 0.12565322 0.12604612 -0.29404882 0.14156315 0.18801475 -0.19029139 0.17839837
0.22217877 -0.22001058 0.07422844 0.12776607 -0.18170854 0.08143226 0.16008458 -0.10047427
0.15474522 0.21209052 -0.13454427 0.052653823 0.25324878 -0.26492715 0.036338814 0.23857436
-0.2770388 0.029183956 0.26613644 -0.25894293 0.10002714 0.25315127 -0.24862185 0.16675302
0.281744 -0.2142987 0.12534478 0.31969124 -0.111858554 0.042758565 0.2612454 -0.09162506
0.07638742 0.3391857 0.06163682 0.14103067 0.3210679 0.015901586 0.27838865 0.45817763
0.12675497 0.36429596 0.38433152 0.16356498 0.29776022 0.53662026 0.2762777 0.41037518
0.6105678 0.23662424 0.32328576 0.40197983 0.115654096 0.21909116 0.18365903 0.08049935
0.33433798 0.26591638 0.18814759 0.54232705 0.52934456 0.24598315 0.44051644 0.44220817
0.16023928 0.4875065 0.37270772 0.1057239 0.49132973 0.12818554 -0.015804445 0.3727958
-0.13889638 -0.32864913 0.2180078 -0.36990696 -0.47183743 0.13354388 -0.8203503 -0.682202
-0.07225303 -1.1242145 -1.0162649 -0.15156123 -1.0964111 -0.9571389 -0.0129052345 -1.0142102
-0.8959724 -0.058026142 -0.93581796 -0.8849467 -0.10836749 -1.1033554 -0.8612236 -0.13694091

conv0.bias f4 [128]
00000000: 3437 503e 6959 7abe a5a5 0ac0 8c3c c63e
00000010: 38a8 613d 18cb 743d 0049 f93a 56eb 593f
00000020: 5047 eabd 98a5 53bd 2c9f 86bd 3785 67be
00000030: 5799 17be 6cf1 d3be b7b1 b0be 28b1 6ebd
00000040: d171 523f 0f4e 5e3f 7f85 2dbe 2cab dfbc
00000050: a4db 983e 6a94 a3be 3e1a 3dbe 0e50 0c3f
00000060: 003d dc3c d02e df3d cc0a 313d 38ef ba3e
00000070: 0cb9 c6be 2872 0540 40a8 15bc de1a 873e
00000080: ca00 373e f205 0d3e cb9d 28be 9e82 04be
00000090: b895 d93d 59f9 083e c1ce 36be c078 fc3b
000000a0: 1f67 2ec0 2f82 fabf dde1 1abe 004c 56bd
000000b0: 0a68 963e 01e8 123f dccd febd 6909 2b3f
000000c0: bc97 84bf 3813 013f 0a2a 653f 6db8 83c0
000000d0: 64ad adc0 3ccf 9dbd 289d 3040 c627 883e
000000e0: 4f06 09be f1fe f63e e459 06be e53f 813e
000000f0: 640c 5dbf b0fb 773d 8048 91bb 5031 9c3d
00000100: 4f81 353e a127 7c3f 318c e43e 834d 9b3e
00000110: 969d c33e e617 44be 449a c43d a0fa 01bd
00000120: c8ad 593e 388c bbbd 26b4 aabe 108b a5bc
00000130: 7a1e b33e d4a6 0d3e 10d5 a6bd 0be7 513e
00000140: ba40 26be fa91 853f cba5 883e 64a8 f73e
00000150: c75f 613e d0bb cfbe 543a a23f f29e 143f
00000160: 61f2 0fbe b4f5 93bd 1c8f 0dbf 20c0 0bbf
00000170: a465 573d a35b 99be 8c0f 2d3e b1a5 5a3e
00000180: 8271 9f3e 5015 9bbd 88db fbbe d074 fbbd
00000190: 23b5 8c3f cc61 f2bd 844b f7bd 560f 71c0
000001a0: f63c c2be 8426 1b3f 06de 453e 082b 35bf
000001b0: 4041 b73c b2c2 313e dce2 d63e 680b 063e
000001c0: 9e68 7b3f 0004 353c 907f cdbe 4a14 2a3f
000001d0: bc81 393d ac24 f5be 900d f63d 7c5e fe3d
000001e0: 0c3a 49c0 3565 393e 00c8 dbb9 7eff 3dbf
000001f0: c856 4fbd df7f 913e c402 54be 7031 013c
0.20333558 -0.2444817 -2.1663601 0.3871807 0.055092067 0.059763998 0.0019018948 0.8512472
-0.11439383 -0.051671594 -0.065733284 -0.22609411 -0.14804588 -0.41395128 -0.34510586 -0.058274418
0.8220492 0.8683786 -0.16945456 -0.0273033 0.29855072 -0.31949168 -0.18467042 0.54809654
0.026884556 0.10897601 0.043223187 0.36510634 -0.38813055 2.0850925 -0.009134352 0.26387686
0.17871395 0.13771799 -0.16466443 -0.12940452 0.1062426 0.13376369 -0.17852308 0.007704824
-2.725044 -1.9570979 -0.15125223 -0.052318573 0.2937625 0.5738526 -0.12441608 0.66811234
-1.0358806 0.5041995 0.8951727 -4.116263 -5.427416 -0.077055424 2.759592 0.26592845
-0.13381313 0.4824138 -0.13120228 0.2524406 -0.8634703 0.060542762 -0.0044336915 0.07626593
0.17725109 0.9849797 0.44638208 0.30332574 0.38206166 -0.19149742 0.09599736 -0.031733155
0.21257699 -0.09157604 -0.33340567 -0.020207912 0.3498419 0.13833171 -0.08146107 0.20498292
-0.16235629 1.0435174 0.2668899 0.4837066 0.22009192 -0.40572977 1.267405 0.5805503
-0.14057304 -0.072245985 -0.5529649 -0.54590034 0.052587166 -0.29952726 0.16900462 0.21352269
0.31141287 -0.075724244 -0.49190927 -0.122781396 1.0992779 -0.118350595 -0.1207495 -3.766561
-0.37937135 0.60605645 0.19322976 -0.70768785 0.02236998 0.17359427 0.41969955 0.13090289
0.9820651 0.011048317 -0.40136385 0.6643721 0.04528974 -0.4787954 0.120143056 0.12420365
-3.144168 0.18105014 -0.00041919947 -0.74217975 -0.05061987 0.2841787 -0.2070418 0.007885322

conv1.weight f4 [64, 128, 3]
00000000: 7563 90bc db13 eabb 6c9f b63c 6368 20bd
00000010: 9a83 e7bd 74ae 21bd 3676 eebb 5c1b 023d
00000020: e13f 163d 2eba 433d 326f be3c 48d3 a5bd
00000030: b4e6 de3c fc9e c33c 74de b63c 24bc 5f3d
00000040: a32e 953d 89e8 e8bc a95d debc 308f 6eb9
00000050: fd7b 953c 9abb dbbd 4a6e 3cbe f449 c8bd
00000060: 3a4a 023d 4ecb 083d c2c2 5bbb 267c 833d
00000070: e4e5 523d 4878 113c d881 933c fb54 c43c
00000080: 0025 5cbd 1c52 273d 4788 f93b 1e1f 3e3b
00000090: 7368 04bc 42c5 93bc 7a73 1abd d49c 953d
000000a0: 9096 4e3c c54c 2abd f071 de3b 58f2 5ebb
000000b0: a7ae 563b b666 103c 3c10 133d 41da 7d3c
000000c0: 8598 333d 5ce1 1bba 4fe1 8dbd d78b fb3b
000000d0: ea30 64bd ad2a a9bd 0135 8ebc 9a1d e53d
000000e0: 68bf 4b3c 0339 c2bd bbdb cbbd 33ab d33d
000000f0: f2f5 26bd 5089 cebd 34e5 9b3c e2d5 103d
00000100: 86c5 06bb 6b7b c4bc 4cb2 d53c 1ae9 c73c
00000110: 8aa8 653a fb88 bcbc 9a4a 5ebd 22f3 b1bd
00000120: 9bb7 1e3d b40f 3e3d 1b28 93bc 1109 a2ba
00000130: 945d 1abd 82fc a4bd ab59 6ebc 8392 543d
00000140: 28da ed3c f0fd fabb 0649 583c ebb2 f73b
00000150: a0bd 40bd ae91 003d 4789 913d 7607 e1bc
00000160: 3163 86be 985d 24be 15dd 40bd 39cc 37bc
00000170: e6bf 143c 1f50 42bd 1366 74bd 0b88 7fbc
00000180: a122 b5bc 5faf 383d 7435 db3c 08f7 cf3c
00000190: 427a 863d b3ce 3a3c d17c cabc 841c ae3d
000001a0: 00d0 d23c 85b7 d1bb 63a4 08bc 9452 04be
000001b0: 522b c2bc 33bb 00bd 95cd 9bbd 87c3 413d
000001c0: d107 36bc d257 f7ba 74ef 043d 8503 5c3c
000001d0: bdac 25bd 907d fcbc bc6a 93bc 80e1 8cbc
000001e0: 41e2 08bd 7c17 fbbb 04f0 c1bc 0632 b53c
000001f0: 68fd 15bb c026 76bc 6d0c a23d 03fb 2abd
00000200: bcea 483a ff5a 6cbb 91e8 c63c 7658 f53b
00000210: bcd3 753c 9271 7d3a 6460 2f3d 6569 99bd
00000220: f4ee cfbd de2f 07be b8d3 c7bc cc98 09bd
00000230: e3d0 e83c de48 ff3c e16a 88bd 0dd2 cb3c
00000240: 0260 523c e067 f13c bc00 1f3d d852 0b3d
00000250: 8bf6 b6bc 6ff0 d1bd f662 233c 3c49 a83a
00000260: 4e07 d4bc 9f2b 0ebd 0834 e9bb b52a 0d3d
00000270: b422 cdbd 4846 683c 1572 98bc 4897 953d
00000280: c6b3 963c 1c92 3ebd 004e 26bd 2589 46be
00000290: 0a56 41be 7012 b5bd 1cf4 c0bd 4462 29be
000002a0: 219c 183d 6853 053d bcf4 dd3a aa5e fc3b
000002b0: ec81 b23d cdfb 5c3c f2c7 c33b be1a 4e3c
000002c0: 463d aabc cfeb c13c dfce 053e 20c1 58bd
000002d0: fd8a 0abd ee39 803d 5853 6ebc b696 ea3a
000002e0: 80b6 073d 4d9c 0d3d 8be5 103d 2690 d63a
000002f0: b2ed 36bc 43e9 713c 771f b93b 0bd2 8d3c
00000300: 3918 f03b 5216 f83d 49ee 9abd 7232 07be
00000310: ff90 64be 1fc0 19be a3bf a8bc 7b09 08be
00000320: 467f 32bc bceb 753d 2981 c63d 0467 2abd
00000330: 5c09 923b c673 36bb 7b39 af3c 0823 e03a
00000340: da0d c9bd 832f 9abb f0e9 053d 7e2a ad3d
00000350: c6b9 4abc 2817 20bc caa6 a3bd a86b 8cba
00000360: 6896 33bd 1fc9 2bbd fe75 ef3c d569 5ebb
00000370: 4a69 d43c 4f96 dbbc 4eea 1b3d 1ceb 87bd
00000380: 639e 91bd 2bab 4a3c 0a2e 60bd 4849 c73a
00000390: fb8e 013d 3213 903d dd12 85bd c513 8fbd
000003a0: 32ba 8bbc 31cd a73c 2446 333c d95d ba3b
000003b0: c838 f7b9 867c 01bd 0e0c d0bc a8c2 f6bd
000003c0: 0628 7d3c 34c1 913d 7a6f 223d 66c8 00be
000003d0: 1634 13be 8e92 06be 8206 3c3d bf33 973d
000003e0: fc53 093d d367 8bbc 7280 7dbd 487f 803b
000003f0: 025f 413d 43d0 64bd 9965 403d 92a5 92bd
-0.01762555 -0.0071434802 0.022292815 -0.03916205 -0.11304398 -0.039473012 -0.0072772754 0.031764373
0.036682013 0.047784977 0.023246381 -0.08096939 0.027209617 0.02387952 0.02232287 0.054622784
0.07284286 -0.028431194 -0.02714427 -0.0002275079 0.018247599 -0.107291415 -0.18401447 -0.097797304
0.03180907 0.03339701 -0.0033532833 0.06420164 0.051488772 0.008878775 0.01800625 0.023966303
-0.053746223 0.04084979 0.0076151225 0.0029010247 -0.008081543 -0.018038396 -0.037707783 0.07305303
0.012609139 -0.04157712 0.0067884848 -0.003401896 0.003275791 0.008813551 0.035904154 0.01549393
0.043846626 -0.0005946362 -0.0692774 0.0076765823 -0.05571071 -0.08260093 -0.017359259 0.11187287
0.0124357715 -0.0948353 -0.0995402 0.10335388 -0.040761895 -0.10084784 0.019030191 0.035360225
-0.002056451 -0.023984632 0.026085995 0.024403144 0.0008760771 -0.023014536 -0.054270364 -0.08688952
0.03874932 0.046401694 -0.01796346 -0.0012362321 -0.0376869 -0.080559745 -0.014547746 0.051897537
0.02903469 -0.0076596662 0.013201004 0.0075591705 -0.04705584 0.03138893 0.07106262 -0.027469378
-0.26247552 -0.16051328 -0.04708584 -0.011218124 0.009078955 -0.04743969 -0.059667658 -0.0155964
-0.022111239 0.045089122 0.026758887 0.025386348 0.065662876 0.01140182 -0.02471772 0.08501533
0.025733948 -0.006400051 -0.008339974 -0.12922126 -0.023702297 -0.031428527 -0.07607571 0.04730561
-0.011110262 -0.0018870777 0.032454923 0.0134285735 -0.04044794 -0.030821592 -0.01799523 -0.01719737
-0.033418898 -0.0076627117 -0.023674019 0.02211858 -0.0022886638 -0.015023887 0.07912526 -0.04174329
0.00076643727 -0.003606498 0.024280818 0.007487352 0.015004095 0.00096681074 0.042816535 -0.074908055
-0.101529986 -0.13201854 -0.024392948 -0.033592984 0.028419917 0.031162675 -0.066610105 0.024880433
0.012840273 0.029468477 0.03881906 0.034014553 -0.022334358 -0.10250937 0.009972325 0.0012839208
-0.02588239 -0.03470957 -0.0071167983 0.034464557 -0.10016385 0.014176913 -0.018609086 0.07304245
0.01839627 -0.04652606 -0.04060173 -0.19388254 -0.18880478 -0.08841407 -0.0942156 -0.16541392
0.03725827 0.032550246 0.0016933898 0.0077017145 0.08716187 0.013487768 0.005974763 0.012579618
-0.02078117 0.023672013 0.13067196 -0.052918553 -0.033823956 0.06261049 -0.014546238 0.0017897699
0.03313303 0.03457289 0.03537516 0.0016369864 -0.011165069 0.014765087 0.005649503 0.01731207
0.0073271063 0.12113632 -0.075649805 -0.13202837 -0.22320937 -0.15014695 -0.020599192 -0.13284867
-0.010894602 0.060039267 0.09692604 -0.04160215 0.004456682 -0.0027840002 0.021389714 0.0017100284
-0.09817095 -0.004705371 0.032693803 0.0845537 -0.012373393 -0.009771146 -0.07990797 -0.0010713236
-0.04384461 -0.04193985 0.029231068 -0.0033937593 0.025929112 -0.026805071 0.038065247 -0.066366404
-0.07110288 0.012369911 -0.054731406 0.0015204335 0.031630497 0.07034911 -0.064977385 -0.069861926
-0.017056558 0.020483585 0.010942016 0.005687457 -0.00047153817 -0.031612895 -0.025396373 -0.120488465
0.015451437 0.07116929 0.039657094 -0.12576446 -0.14375338 -0.13141844 0.045904644 0.07382917
0.03352736 -0.01701728 -0.061890073 0.003921423 0.047209747 -0.055862676 0.04697189 -0.07160486

conv1.bias f4 [64]
00000000: 34fc 5240 e444 d03f 348e fec0 aebe 3240
00000010: 04e7 d93d 87d8 c93f a11d 9c3f 0676 c13f
00000020: c4fd 7a3f 1c43 fec0 5cd4 8340 6b90 c33f
00000030: 9261 ce3f 8818 a33f 0e19 2740 d8db 843f
00000040: 46db 66c0 0cba 1bc0 00eb 413f aed9 ff3f
00000050: 6cb4 8fbe c7ff 1540 1ec3 2e3f 6b6b b5c0
00000060: b962 c33f ec31 5bc0 f9d1 273f 1e0b 3abd
00000070: 186c 4e3f f8a1 1cc1 dc5e ce3f d411 ea3f
00000080: 7484 883f ecf3 343e 5a7f c73f c405 923f
00000090: 00e4 a13e 70da 2c40 44ae 2540 c8f3 c23f
000000a0: 6e9c f23f 9ae1 423f e817 e43f c582 1840
000000b0: 0026 c7c0 4c34 e13f 867c 6940 ee33 a1be
000000c0: 7d88 1340 70df 5f3f 5c8a d23f e06c 3e40
000000d0: 1167 8040 1abf 5c40 b5bb 463f 2e61 0c3e
000000e0: a135 833f e69d a93f b9b2 6040 88df c3c0
000000f0: d08e 593e 2cb4 183f fae4 bd3f 7ca6 b63f
3.2966433 1.6271024 -7.954859 2.7928882 0.10639766 1.5769204 1.2196542 1.5114143
0.98043466 -7.945692 4.119673 1.5278448 1.6123526 1.2741861 2.6109042 1.0379591
-3.6071334 -2.4332304 0.75749207 1.9988306 -0.28067338 2.3437364 0.68266475 -5.6693625
1.5264503 -3.424922 0.6555477 -0.04542076 0.8063369 -9.789543 1.6122699 1.8286691
1.0665421 0.17671174 1.558574 1.140801 0.31619263 2.7008324 2.5887613 1.5230646
1.8953989 0.7612549 1.7819796 2.3829815 -6.2233887 1.7594085 3.6482253 -0.31484932
2.3052056 0.87450314 1.6448474 2.9753952 4.0125813 3.449164 0.7763017 0.13708946
1.0250741 1.3251312 3.5109084 -6.1210365 0.21245885 0.5964992 1.4835503 1.4269557

conv2.weight f4 [64, 64, 3]
00000000: ebed eebb d097 cfbd 0f59 4abe 8cf8 05ba
00000010: 4ab9 44bc 768d 9ebb 05a1 cabb 792a 923d
00000020: 29b8 4e3d 4c25 4fbb aa18 3b3d 6af2 1ebd
00000030: 0888 753a c62b 85bc 6dca ddbd 8480 89bc
00000040: 6ddf f7bd c94d 35be 6021 ccba 63ea 8b3d
00000050: 0f43 953d f8d9 053c 7014 513d 63e8 c8bd
00000060: e3c1 603b b624 29be 81dc efbd 0373 19bc
00000070: 7e88 753e be8d ae3d d072 fc39 5b49 d43d
00000080: 9ee3 773e 2294 adbb 9078 06be 6c64 70be
00000090: a007 dc3b ad6a 2e3e af1a bbbc f666 03bb
000000a0: ca02 89bd 82e6 3fbc b01c e6bb 90f4 1a3e
000000b0: 1760 013d 046f fc39 6293 76bd 4ba2 dcbd
000000c0: 17ed dbbb 000a a0bd da9e 853d 542b 53bb
000000d0: 8119 2abe 7919 38be c2d4 0bbc 077d 823d
000000e0: b471 8abe c863 81ba f4df ebbd 5e3c 3cbd
000000f0: 3418 213c 86c6 1e3e 860e 93bd 067b d83b
00000100: 88f9 6d3d 485f 67bc dd85 27bb 7a84 fabd
00000110: 8a82 303d 0f09 99bc bc1a b03e c436 793e
00000120: d81f a93a 20af c5bc ea3b 7d3c ba0c dc3b
00000130: c6a8 f9bb 58f2 443e 3abf 033c 64f9 673e
00000140: 8a14 d4bc 1760 9e3b 6419 3e3e 8637 7ebd
00000150: 9287 debb 0a35 cc3b d0bc ed3d 64db 36bb
00000160: a80d f5bc 366b 8d3d 06ec 293c 1b2c 15be
00000170: 2890 90bd 08c4 8b3a d548 1e3e 3c77 83be
00000180: 8af3 8ebb c014 d6bb da05 f2bb 362d 68bc
00000190: 407e 8e3d df3e 0ebe 04cf 7e3a 9d3e 20bd
000001a0: 5f72 e5bc 049a 123c cadd cbbd 08d7 82bc
000001b0: 30af 60ba 1107 28be b75a f33d 98b4 9fb9
000001c0: 821e ccbc 442a f43b 2432 1abc 25bf 67bd
000001d0: a19e 653d 7d57 8d3c 826c 98bd 22c5 603b
000001e0: 888d 2dba 42be 1fbe f154 b0bd 7270 42bc
000001f0: 6580 b5bc c61c 85be 524b eabb 0b62 88bc
00000200: 5bb6 323e 3d95 2fbb 2ff0 593d abf3 a6bd
00000210: a7e1 483c 338d 42bd ce26 e73d 4a92 61bb
00000220: 103b bc3d f63e 103b be02 00bc 06b4 033e
00000230: 44f1 c93d 3e2d e5bb f2d9 eebd 3933 fabd
00000240: 2171 023c a83f a43d 5651 b53c 757d 0cbc
00000250: 4dbf 6c3e 7487 8bbd fabf 313b f083 85bd
00000260: 2b46 22bb 3e38 4dbb 900e 1f3d 2307 c6bc
00000270: 50ce f2b9 97ad 34be cb5a f4bd 9985 10bc
00000280: 1a2e 643e cadc 2ebe f8ec ef3a c9b6 a0be
00000290: 2fe7 4f3d 2342 b53b 3bf9 083e f893 323d
000002a0: 58bb 213c 4e15 62bd 4e98 49bd 305a aebb
000002b0: 4a21 363c 8525 063e c1d4 083c 3bdb d3bd
000002c0: f6bc 4e3d 260d 093c 2881 493e 4e70 f83d
000002d0: ef1a 84bc 4ecb 4cbe 5407 813e efdf 8c3b
000002e0: a3b4 5abe 568e a63c 783f 263b d71b 06bc
000002f0: 33cc 74bc ac53 353b 74a1 0c3e c2cc 0abe
00000300: 4a2a 46bb 9190 36bd dac8 3a3d f5b8 a63b
00000310: 5ecf 803d 0b8d 6bbd 45e4 8c3c 146e 1c3d
00000320: 89be e3bb baea 0ebc c8f1 03bb 8acb d83d
00000330: 5c13 b5bc 52f9 d43c 5089 bfbd 00a0 26bc
00000340: d066 4439 c484 abbd 941b 98bb 088d 5bbd
00000350: 0486 923d a4bf 953a b020 8a3d 0703 953d
00000360: c074 e3bb 6231 573d 5c98 d93d d419 4bbc
00000370: e955 1bbe 9837 33bd 7a0e 863b 74e8 84bd
00000380: 6bb3 25bd 1ef1 3f3b 4a36 ae3d 33e0 83bd
00000390: 7e6c 143c 00ee 9eba c9d1 bfbd 5f2e cf3b
000003a0: 001a 3cba 3601 a43d f6e8 09bc 9c4e 52bd
000003b0: 8074 8a3c 0085 e23b 5606 86be 3267 88be
000003c0: 243a 5dbc d2f7 50be 6e93 5c3d 605d dcba
000003d0: 266f d0bd 352b b5bd 611e 6a3b dc6b de3d
000003e0: 7f0c b63d 1a68 eb3b e4a7 d03d 5e5e 95bc
000003f0: 7ac5 c53b 5c3b c13d 682c d1bd a62d 463b
-0.0072915456 -0.10136378 -0.19760536 -0.0005110584 -0.012007067 -0.004838641 -0.006183746 0.07137007
0.050468598 -0.0031607924 0.04567782 -0.038805403 0.00093662785 -0.016256224 -0.10829625 -0.016784914
-0.12103162 -0.17705454 -0.0015573911 0.06831815 0.07288181 0.008169644 0.05104488 -0.09809949
0.0034295253 -0.1651791 -0.1171198 -0.0093658 0.23977849 0.08523129 0.00048150728 0.10365554
0.24207923 -0.0052972 -0.13131928 -0.23475808 0.006714776 0.17032881 -0.022839872 -0.0020050383
-0.06689985 -0.011712672 -0.007022463 0.15132356 0.03158578 0.000481479 -0.06019915 -0.107731424
-0.006711613 -0.07814407 0.06524439 -0.003222187 -0.16611291 -0.17978467 -0.008534612 0.06371503
-0.27039874 -0.0009871656 -0.11517325 -0.045956008 0.009832431 0.15505418 -0.071805045 0.0066064624
0.0580993 -0.014121838 -0.0025561966 -0.12232299 0.04309324 -0.018681077 0.34395397 0.24337298
0.0012903167 -0.024131358 0.015456179 0.0067153843 -0.0076189963 0.19233072 0.008041197 0.22653729
-0.0258887 0.004833232 0.18564373 -0.06206467 -0.0067910636 0.0062319087 0.11608279 -0.0027901763
-0.029913738 0.069052145 0.010371214 -0.14567606 -0.070587456 0.001066328 0.1545747 -0.25676906
-0.004362528 -0.0065332353 -0.0073859515 -0.014170935 0.06957674 -0.13891171 0.0009720179 -0.039122213
-0.028008638 0.008947853 -0.09954412 -0.015971676 -0.0008571027 -0.16408946 0.11882537 -0.00030461396
-0.024916891 0.0074513275 -0.0094113685 -0.056578774 0.056059483 0.017253632 -0.07442571 0.0034297188
-0.0006620516 -0.15599921 -0.08609951 -0.011867629 -0.02215595 -0.25998515 -0.007150092 -0.016648313
0.17452376 -0.0026791834 0.053207573 -0.08151945 0.012260831 -0.04749794 0.11286698 -0.003441947
0.09190953 0.0022010184 -0.007813154 0.12861642 0.09860471 -0.0069939187 -0.116626635 -0.12216801
0.007961542 0.08019954 0.02213351 -0.008574833 0.2311985 -0.06812945 0.0027122484 -0.06519306
-0.0024761062 -0.003131404 0.038832247 -0.024173325 -0.00046311552 -0.17644344 -0.1193138 -0.008820915
0.22283211 -0.17076412 0.0018304875 -0.31389454 0.050757583 0.0055315658 0.13376324 0.043598145
0.009871326 -0.0551961 -0.049217515 -0.00532081 0.011116335 0.1310025 0.008351506 -0.10344549
0.050473176 0.008364951 0.19678175 0.121307954 -0.016126124 -0.1999943 0.25200903 0.004299156
-0.2135797 0.020331543 0.002536742 -0.0081853485 -0.014941263 0.002766828 0.13733464 -0.13554671
-0.0030237609 -0.044571463 0.045601703 0.0050879666 0.06289552 -0.057507556 0.017198691 0.038190916
-0.006950204 -0.008722955 -0.0020133127 0.10585697 -0.022103958 0.025997791 -0.09352362 -0.010169983
0.00018730317 -0.083749324 -0.0046419594 -0.053601295 0.07154468 0.0011424911 0.06744516 0.07275968
-0.006941408 0.05253733 0.10624763 -0.012396295 -0.15169491 -0.04375419 0.004091081 -0.064896494
-0.04045431 0.0029288004 0.085064486 -0.06439247 0.00905907 -0.0012125373 -0.09366185 0.0063226665
-0.0007175505 0.080080435 -0.008417359 -0.0513445 0.016901255 0.0069128275 -0.2617671 -0.26641232
-0.013502631 -0.20407036 0.053851537 -0.0016812496 -0.1017745 -0.08846132 0.0035723674 0.10860416
0.08889102 0.0071840407 0.101882726 -0.018233474 0.006035504 0.0943515 -0.10213548 0.003023961

conv2.bias f4 [64]
00000000: 9ff2 8140 8c3d 7440 c8cd 5b3d 86a6 713f
00000010: 6c09 3840 9758 8c3e 9ade 523f 9e2d cbbf
00000020: 4a7c 6ebf aac5 dc3f 80c1 06be b236 9b3f
00000030: cf4d e2bf 8a73 0c3f 53a2 8d40 180c e9bd
00000040: 2004 8d3d 6792 1b40 9bb0 5840 37a3 a13f
00000050: 8982 7240 3aa9 ee3f 057f 1740 4c20 223e
00000060: 7156 6d40 149d 8b40 c6e3 5c40 6bdf a2c0
00000070: 9edd ebbf 1af1 1cc0 fc9c e4bf 52b0 493f
00000080: 4914 ae40 9cd3 a53f f41a 81bf cac5 ecbf
00000090: 0c9f 3b3e 1abd 1940 482f 73bf a130 c03f
000000a0: aad6 3840 a070 b03f ee40 5c40 abd4 d33f
000000b0: a624 acc0 a083 7940 c83c 92bf 3960 8440
000000c0: 54b2 6fbf 56e4 e03f 9cf5 f5c0 600c c73f
000000d0: 427f c53f 1269 b93f 9437 09be 7cfd b83f
000000e0: 7e52 2840 3c3d 9ac0 eff3 6740 9c56 0740
000000f0: 2b55 f8bf cf5d 3e3f b091 883e 6011 00c1
4.060867 3.8162565 0.053663045 0.9439472 2.875575 0.2741134 0.82370913 -1.5873296
-0.931584 1.7247822 -0.13159752 1.2126067 -1.7679995 0.548638 4.426065 -0.1137926
0.068855524 2.4308107 3.3857791 1.2627934 3.7892172 1.8645394 2.3671277 0.15832633
3.708401 4.3629246 3.4514022 -5.0897727 -1.8427007 -2.4522157 -1.7860408 0.7878467
5.439976 1.2955203 -1.008635 -1.849786 0.1832239 2.4021668 -0.9499402 1.501484
2.888102 1.378437 3.441463 1.6549276 -5.3794737 3.8986588 -1.1424799 4.136746
-0.9363148 1.7569683 -7.6862316 1.5550652 1.5429461 1.448519 -0.13400108 1.4452357
2.630035 -4.819975 3.6242635 2.1146612 -1.9400991 0.7436189 0.2667365 -8.004242

conv3.weight f4 [128, 64, 3]
00000000: a054 0e3c 11af a5bd f8d7 373c caba 603b
00000010: 7f87 be3c e775 063c 6ca0 d13b 8b7b 3e3e
00000020: 7bb8 ed3b df5b a4ba bb82 bebd e7d1 eebb
00000030: 0156 3fbc 59be c03d acda e83b 9713 ddba
00000040: 7d9e 55bd 762a 08bb 9e5e aebb d972 f3bc
00000050: 91c1 603c 1571 3f3c d258 7fbd 90a1 9d3b
00000060: 51d7 c5bb 880a 5d3d 5bb0 e53b 5434 63bc
00000070: c2fc cebb 7243 cf3b 02e9 823b 9aea 9abd
00000080: abb5 d63b 035b 9dbb dd77 b13d d61c 26bc
00000090: f864 fc3b 9b7d 233d 7e7d 96bb 9237 f3bb
000000a0: e871 843d de0b 9bbb 0d95 033c 9fa6 86bd
000000b0: 30dc 0e39 60ca 66b9 bed7 883c 8c8d 03bb
000000c0: ba29 ea3b 0d46 8dbc f2f8 dc3b a480 2f3c
000000d0: 02ea 9cbd 0062 203c 995a c8bb 13ce 85bd
000000e0: 08c4 193b 3769 47bc c45b 0ebc 26b1 9fba
000000f0: 9d10 20bc 44ad bcb9 d670 cabb 7cbc 8f3a
00000100: 8df5 96bd b4ea efbb 420c 1b3c 1555 dd3d
00000110: 4c02 21bc af12 08bc 9671 c53d 85aa b03a
00000120: 1027 1eb9 f791 3a3c f076 9d3b 9b6a 8b3b
00000130: b406 823d b3e4 093b f57e d0bb 9f45 a2bd
00000140: 43c4 24bc acd4 55bc 2fba 01bd 666c 9c3b
00000150: 7127 da3a 63ef bfbd 4c8f fd3b 773b 8b3b
00000160: 38a6 143c fa6a 54bc 7cf4 7dbc ec6d 92bc
00000170: 5665 833b 0642 f2bb f0a4 a5bc fcdb 1bbc
00000180: d861 9639 1ac4 45bd b7d9 213c 9678 133c
00000190: cc4a 84bc 6dd5 62bb 6c0b ceba dbdb 793d
000001a0: 0e3d 80bb 609f 3cbc e9fe 74bd 2469 1bbb
000001b0: 9600 9cbb 66b0 10bd 790d 723a c034 3f3b
000001c0: 589e 713d a727 e23b e605 a0ba 91e9 ec3b
000001d0: b81c 023b 651d 4abb e224 31bc d536 893c
000001e0: 8b05 f5bb 392d 413d 0b8f 24bc 0a44 6dbb
000001f0: a222 e03c f61a 09bc f489 b13b 08d7 15ba
00000200: 3035 d8bb bcf7 fdba ce03 a0bc abae 1a3c
00000210: 784f 09bc 3978 0dbd 7b64 32bc 6f89 c03b
00000220: 6d5c c8bd 8357 953b e2d8 d5bb ebd9 59bc
00000230: 27e5 0f3c 759d fd3b 16df c8bd 1aff 1a3c
00000240: b0a7 07bc 9a89 7fbd 1491 b33b dc0b 53bc
00000250: d508 2cbd fe36 9fba 5191 74bc 9cbf a8bd
00000260: 4826 d9bb f454 d939 1707 113e 29b1 c8bb
00000270: f0ea f6bb 4981 c8bb 8a0b dc39 6513 8c3b
00000280: f103 febc eb6a 25bb 000b e73b 202b 93bc
00000290: bf02 66bb 97f3 963a 1851 f1bc f0b7 763a
000002a0: cac1 b3bb a4b9 19bd 027c 2bbb f25a 753c
000002b0: 04e8 9abd e6ef 14bc 322c 0ebc e9ed 073d
000002c0: 1c75 993b ed33 893a 8ca2 5b3d 93b0 26bc
000002d0: 3630 d3ba 0ea3 cdbc b391 08bc e635 fc3a
000002e0: 4696 23be a647 9a3a 415f adbb b227 753d
000002f0: d2c2 e23a e49e 023c 8153 eabd 88a8 96b9
00000300: 6cd1 c73a 72b6 13bd bca6 61bc 4795 debb
00000310: cffd adbd f087 48bc 12e3 f1bb ccd3 42bd
00000320: 581a 203c ff4f ef3b 0544 39bd 3956 b13c
00000330: e85e 6a3c ac3d 803b 6575 5a3c 84b4 80bc
00000340: 9efb 59bc eb76 903c 3ef0 c0bc 991c 513d
00000350: cce9 cfbb caac 8ebb 2950 1a3d 6660 e7bc
00000360: 2555 70bc f15d 26be aed4 2b3c f4bf 1c3b
00000370: 4a2b 41bd 2634 0bbc 50de e63a df3b a93d
00000380: d05e 613b 1a34 923b 1ca3 5bbe 36c0 abbc
00000390: 1514 113c 04b6 8dbe f51c 15bb 4061 f73b
000003a0: 7d40 c93d 9e27 ad3b 234b fb3a cbab 263e
000003b0: 11b7 80bc a71f b1bc 800b ccbd 238a fcba
000003c0: 8496 f6ba c080 53bd 0409 e43b 3c24 38bc
000003d0: 369a 673c b0f1 6f3b d94f 683b 0226 273d
000003e0: d8b1 753c 1efc 04bc 7aca bdbd 5c56 373a
000003f0: 889a a13a 9f1a e8bd edc1 8dbb edcc 0fbc
0.008687168 -0.08090032 0.011220925 0.0034291022 0.023257969 0.008206821 0.0063972976 0.18601815
0.007254658 -0.0012539587 -0.093022786 -0.007288206 -0.01167822 0.09411306 0.007106146 -0.00168668
-0.0521531 -0.0020777262 -0.005321338 -0.02971785 0.013718025 0.011684676 -0.062340565 0.0048105195
-0.0060376306 0.05396512 0.0070095486 -0.0138674565 -0.006316752 0.006325179 0.003995062 -0.07564278
0.006552418 -0.004802109 0.0866544 -0.010138711 0.007702466 0.03991471 -0.0045925966 -0.007422396
0.064670384 -0.0047316393 0.008031142 -0.06574749 0.00013624202 -0.000220099 0.016704436 -0.0020073382
0.0071460875 -0.017245317 0.006743544 0.010711823 -0.07661821 0.00978899 -0.0061143157 -0.06533446
0.002346279 -0.012171081 -0.008688871 -0.0012183532 -0.009769586 -0.00035987247 -0.006178002 0.0010966207
-0.07371054 -0.00732168 0.009463372 0.10807244 -0.009827208 -0.008305236 0.096408054 0.0013478553
-0.00015082606 0.01138734 0.004805438 0.0042546517 0.06348935 0.0021040856 -0.0063627907 -0.079234354
-0.010056558 -0.013051193 -0.0316717 0.0047736643 0.0016643835 -0.09371831 0.0077380296 0.004249032
0.009072833 -0.012964958 -0.015500184 -0.01787468 0.004009883 -0.0073931245 -0.02022025 -0.009512898
0.0002868313 -0.04828272 0.009878567 0.009000918 -0.016148947 -0.0034612075 -0.0015719957 0.061000686
-0.0039135283 -0.011512607 -0.059813414 -0.0023713792 -0.004760812 -0.035324477 0.0009233575 0.0029175729
0.0589889 0.0069016996 -0.0012208789 0.0072299917 0.0019853543 -0.0030840274 -0.010812016 0.016749779
-0.0074774674 0.04716227 -0.01004387 -0.0036203885 0.027360264 -0.008368244 0.0054180566 -0.0005715941
-0.0065981373 -0.0019376199 -0.019533064 0.009441058 -0.008380763 -0.03453848 -0.010888214 0.0058757584
-0.09783254 0.0045575514 -0.0065260986 -0.013296585 0.0087826615 0.0077397176 -0.09808175 0.009460235
-0.008279726 -0.062387086 0.005479941 -0.012881245 -0.04200061 -0.0012147126 -0.014927224 -0.082396716
-0.006626878 0.0004145276 0.14162861 -0.0061246348 -0.007535331 -0.0061189276 0.00041970267 0.004274773
-0.031007739 -0.002524073 0.007050872 -0.0179649 -0.0035096852 0.0011516687 -0.029457614 0.0009411564
-0.005485748 -0.037530556 -0.0026166444 0.014975296 -0.07563785 -0.009090399 -0.008677529 0.033185873
0.00468315 0.0010467746 0.053621814 -0.0101739345 -0.001611239 -0.025102165 -0.008335519 0.0019242137
-0.15975294 0.001177062 -0.005290896 0.05985231 0.0017300493 0.007972453 -0.11441708 -0.00028735795
0.0015244908 -0.036062665 -0.013772663 -0.0067926976 -0.08495676 -0.012239441 -0.007381805 -0.047565266
0.009771906 0.0073032374 -0.045230884 0.02164756 0.014304854 0.003913602 0.013333653 -0.015711077
-0.013304619 0.01763483 -0.023552056 0.051052663 -0.0063450094 -0.004354094 0.037674103 -0.028244209
-0.014668738 -0.16246773 0.0104877185 0.0023918124 -0.047160424 -0.00849632 0.0017613862 0.08263373
0.0034388788 0.0044617774 -0.2144894 -0.020965677 0.008854886 -0.2767793 -0.0022752855 0.007549435
0.09826753 0.0052842638 0.0019172173 0.16276471 -0.015712293 -0.021621538 -0.09963131 -0.0019267242
-0.0018813168 -0.051636457 0.0069590826 -0.011239108 0.014135888 0.0036612563 0.0035447984 0.04080773
0.014996015 -0.00811675 -0.09267135 0.00069937645 0.0012329379 -0.113332026 -0.0043260963 -0.008776885

conv3.bias f4 [128]
00000000: 38fd 6e3f a080 e43d f072 b83d cd69 1c3f
00000010: 9d2a 23bf 3099 c73b 0e11 863f df14 1bbf
00000020: 0954 f13f 9445 71c0 f68b 2740 fa0e 9dbf
00000030: e015 5a3f 3ecd 0dc0 705f d53c eefc 3bbe
00000040: f369 733f 0a79 6bbe 30f9 9bbd 669f 0f40
00000050: b858 94c0 9ccc e23d c7ee 7d3f 0989 8c3f
00000060: 1286 85bf 807c 003f c043 21bc f2b2 96bd
00000070: e65f 98bf 2c9d 843e 4879 953d 303d cbbf
00000080: df9b 05bf d569 39c0 74f0 203f 709f 11c0
00000090: c577 18bf 02e0 ecbf 8dbd 4ebf 7c0a 7bbe
000000a0: 13d3 54c0 3612 fc3d 7429 963e 3ddd 0f3f
000000b0: 9294 f0bf 40d3 99bf 5a43 ddbf 2def 4abf
000000c0: 0487 f33f d248 1f3f 34e5 a7bf 4b3e 2c3f
000000d0: ce3d 6cbf 346e 45c0 1e73 a13d 7edd 3f3f
000000e0: 56fc 653f 33df 353e d83b cdbf b8e6 093d
000000f0: baa1 1fbe bed5 abbf 45d7 0dbf 2396 85be
00000100: b0ee 293f 7d3b 1140 7621 2fc0 da8e 9ebe
00000110: 9d24 c7be 1ff5 0b3f 8eee 0abe 541b 3abf
00000120: 2e16 eb3f 6ae3 0840 c8ef 47bf f803 5abf
00000130: a56b 07c0 3461 ccbd d32d bd3f 7429 813d
00000140: f641 9b3d b27b 9d3f 2c35 93bf 50ea 38c0
00000150: c459 923f 962b a6bf 194e 17c0 1cb5 33bf
00000160: 04fd 983f c39d 8dc0 10e6 83bf 2fe4 b23f
00000170: 790b 953f c0c8 a2be f662 793f 18e1 0abd
00000180: e851 973e 7ac2 ef3e 602b b23e e017 4f3e
00000190: 245a 15c0 68ba 623e a2e9 97be 7a54 d7bf
000001a0: a6bf a23f 59d9 1a3f 187a edbe ceef aabf
000001b0: 3826 6ebe 5bab 9a3e fc56 c2be b4e1 d8bf
000001c0: 0491 15bd a87e ce3d 2073 813e 28bf a13d
000001d0: a0a0 43bf 365a 3940 1ed2 2b3e 4337 993f
000001e0: 4e35 503f 7033 8dbe c49c 84c0 3637 343f
000001f0: 1107 ce3e 2f4c 0b40 acef 93bf 2939 0d3f
0.9335513 0.11157346 0.090062976 0.6109894 -0.637369 0.0060912594 1.0473955 -0.6057872
1.885377 -3.7698717 2.6179175 -1.2270195 0.8518963 -2.215652 0.026046485 -0.18358204
0.9508354 -0.22995391 -0.07615888 2.244104 -4.63583 0.110741824 0.9919247 1.097932
-1.043154 0.5018997 -0.009842813 -0.0735835 -1.1904266 0.25901163 0.07298523 -1.5878048
-0.52190965 -2.8970845 0.628669 -2.2753563 -0.59557754 -1.8505862 -0.8075798 -0.24515718
-3.325383 0.12308161 0.293285 0.5619696 -1.879534 -1.2017593 -1.7286179 -0.79271203
1.9025578 0.6222049 -1.3116822 0.6728255 -0.92281806 -3.0848513 0.07883285 0.74947345
0.8983816 0.17760925 -1.6033888 0.033667296 -0.15589038 -1.3424604 -0.554066 -0.26091108
0.66379833 2.2692559 -2.7364173 -0.30968362 -0.3889512 0.546709 -0.13567564 -0.7269795
1.8366144 2.1388803 -0.7810025 -0.85162306 -2.115945 -0.099794775 1.477961 0.06306735
0.075809404 1.2303374 -1.1500602 -2.8893013 1.1433644 -1.2982051 -2.3641417 -0.70198226
1.1952214 -4.425508 -1.0304585 1.3975886 1.1644126 -0.31793785 0.9741663 -0.033906072
0.29554677 0.4682806 0.34798717 0.20223951 -2.3336267 0.22141421 -0.29670435 -1.6822655
1.2714736 0.60487896 -0.46382213 -1.3354433 -0.23256767 0.3020886 -0.3795699 -1.6943879
-0.03651525 0.100827515 0.25283146 0.07897788 -0.7641697 2.896131 0.16779372 1.196999
0.81331336 -0.27578306 -4.1441364 0.70396745 0.40239766 2.1765249 -1.1557517 0.55165344
