faster_whisper/assets/silero_decoder_v5.onnx (onnx, 532505 bytes, 5 tensors)

rnn.weight_ih f4 [512, 128]
0	0xbe4a472c	-0.19753712
1	0xbe0d3fb3	-0.1379383
2	0x3e291232	0.16510847
3	0x3c025810	0.007955566
4	0x3cf446fb	0.029819002
5	0xbeab61a5	-0.33472934
6	0x3c9f11a5	0.019417593
7	0x3ba97fdb	0.0051727123
8	0xbda494af	-0.08036172
9	0x3e12c52c	0.14333028
10	0xbd3284c2	-0.04358364
11	0xbe891a93	-0.26778087
12	0xbe16834b	-0.14698522
13	0x3ca0660e	0.019579913
14	0x3e3ff054	0.18744022
15	0x3dc37b39	0.09544987
16	0x3dcef2a5	0.101048745
17	0xbe7717f9	-0.24130239
18	0xbee3d7a2	-0.44500452
19	0xbea52a2d	-0.3225874
20	0xbed77b74	-0.42086375
21	0x3ec307ac	0.3809179
22	0x3e26a0ce	0.1627228
23	0xbe23ac2a	-0.15983644
24	0xbe9d2b8e	-0.30697292
25	0xbe1dd31f	-0.15412568
26	0x3e312cc3	0.17302231
27	0xbe1a4d78	-0.15068614
28	0xbd967490	-0.07346451
29	0xbecda902	-0.40168005
30	0xbdba1d13	-0.09087577
31	0x3eaee889	0.34161785
32	0xbec7fee3	-0.3906165
33	0x3d8580bb	0.06518694
34	0xbe72b386	-0.23701295
35	0xbf28e8e2	-0.6598035
36	0xbe4bd9ec	-0.1990735
37	0xbe522af0	-0.20524192
38	0xbc71bfcc	-0.014755201
39	0x3e94c020	0.2905283
40	0xbdab6caa	-0.083703354
41	0xbe2c8e4d	-0.16851158
42	0xbe192829	-0.14956726
43	0x3ee5868e	0.4482922
44	0xbe2d14ff	-0.1690254
45	0xbd0622e6	-0.032748125
46	0xbf2078f3	-0.62684554
47	0xbd8a6e09	-0.06759269
48	0xbef0f0fe	-0.47058862
49	0x3eb8f51f	0.36124513
50	0xbe8a90a2	-0.2706347
51	0xbd574b08	-0.05256179
52	0x3db59131	0.08865584
53	0xbebb568e	-0.36589473
54	0xbe8eb0fa	-0.27869397
55	0x3def120b	0.11673363
56	0xbdb77cb5	-0.08959333
57	0x3d971d66	0.07378654
58	0xbe4c4074	-0.19946462
59	0xbe9710dc	-0.2950505
60	0x3def7135	0.116915144
61	0xbd813c91	-0.0631038
62	0x3eac9852	0.3370996
63	0xbe62c953	-0.22147112
64	0xbe00ee93	-0.12591009
65	0xbdb21814	-0.08695999
66	0x3c2efe8d	0.010680807
67	0x3d7a977f	0.061179634
68	0xbe82071a	-0.25396043
69	0xbd0c89e6	-0.034311198
70	0xbe7dc481	-0.24781992
71	0xbecc229d	-0.39870158
72	0x3e001013	0.12506132
73	0x3d69eb2e	0.05710905
74	0xbd1e9bd6	-0.038722835
75	0x3e31e285	0.17371567
76	0x3d977893	0.073960446
77	0xbe77d4fc	-0.24202341
78	0x3e1c47a7	0.15261708
79	0x3e39c11a	0.18140069
80	0xbd567cb9	-0.05236504
81	0xbed86e1a	-0.422715
82	0xbd95a6ec	-0.073072284
83	0xbe95cc78	-0.2925756
84	0xbeb3c50d	-0.35111275
85	0xbdb58b99	-0.08864517
86	0xbe1960e3	-0.14978366
87	0x3f0fa74a	0.5611464
88	0x3e3da777	0.18520914
89	0xbd25bf22	-0.04046548
90	0xbe43bc1d	-0.19114728
91	0x3ec40220	0.3828287
92	0xbd349288	-0.044085056
93	0xbe5ef9cd	-0.21774979
94	0x3da362f9	0.07977862
95	0xbdfb2915	-0.12263695
96	0xbf174e73	-0.5910408
97	0xbe0fd02a	-0.14044252
98	0x3e80e8ae	0.2517752
99	0x3e2cd720	0.16878939
100	0xbe58feec	-0.21190995
101	0xbd77dc41	-0.060512785
102	0xbe174b49	-0.14774813
103	0xbca33b24	-0.019925661
104	0xbc9be499	-0.019029902
105	0x3b78b993	0.0037952408
106	0x3926512f	0.00015861237
107	0xbe29c599	-0.16579284
108	0xbe050d87	-0.12993442
109	0x3eae8b07	0.34090444
110	0xbe28ff95	-0.16503747
111	0xbed43922	-0.4144984
112	0x3d7777d5	0.060417015
113	0xbca5e766	-0.020251941
114	0xbc587cc3	-0.013213339
115	0xbe411c36	-0.18858418
116	0xbdcec6a4	-0.100964814
117	0xbd94b637	-0.07261317
118	0x3e415f86	0.18884096
119	0x3e379f19	0.17931785
120	0xbe5fc6d2	-0.21853188
121	0xbe414a20	-0.18875933
122	0xbd871455	-0.06595675
123	0xbec5e6a5	-0.3865253
124	0xbbce142a	-0.006289025
125	0x3ee7d575	0.45280042
126	0x3d5ca3e9	0.053867254
127	0xbd4600eb	-0.04834072
128	0xbe959a3b	-0.2921923
129	0xbd64a4a3	-0.055821072
130	0x3e9c0fa2	0.30480677
131	0xbcc49a34	-0.023999311
132	0x3d707fc7	0.058715608
133	0x3e0c5e4e	0.1370785
134	0x3dcbeb58	0.09956998
135	0xbe0d918a	-0.1382505
136	0xbd051db2	-0.032499023
137	0xbc0bb7f6	-0.008527746
138	0x3d039441	0.032123808
139	0x3e661073	0.22467212
140	0xbe1d612d	-0.15369101
141	0xbdd312be	-0.10306309
142	0xbe166074	-0.14685231
143	0x3e107939	0.14108743
144	0xbdbc4ac9	-0.09193952
145	0xbcbd348b	-0.023096344
146	0x3d1f5d45	0.038907308
147	0xbca2d74b	-0.01987805
148	0x3cdcb8aa	0.026943523
149	0x3c563ba9	0.0130757475
150	0xbd44101e	-0.047866933
151	0xbe655785	-0.22396667
152	0x3e781edc	0.24230522
153	0x3e5d4398	0.21607816
154	0x3c3fe373	0.011711943
155	0xbe14715a	-0.14496365
156	0xbe1e7ec6	-0.15478048
157	0x3e3ccd75	0.1843775
158	0xbe87a698	-0.26494288
159	0x3eb9a462	0.36258227
160	0x3d991854	0.07475343
161	0xbd9a7bd0	-0.075431466
162	0xbee7b6f1	-0.4525676
163	0x3da824e0	0.08210158
164	0xbe5f1d10	-0.2178843
165	0x3cfaf962	0.030636493
166	0xbea24af3	-0.31697807
167	0x3ef63b05	0.48091903
168	0xbd4c54f4	-0.049885705
169	0x3ec1b7c9	0.3783553
170	0xbd921233	-0.071323775
171	0x3c87ce53	0.016577875
172	0xbb8ed5d8	-0.0043589883
173	0x3d8b801e	0.06811546
174	0x3d84d07e	0.06485079
175	0x3e955021	0.29162696
176	0x3e34dfc9	0.17663492
177	0x3e08e438	0.13368309
178	0x3e90e431	0.28299096
179	0xbe0f7e5d	-0.14013048
180	0xbc3e8ba6	-0.0116299745
181	0xbe82a82a	-0.25518924
182	0x3e082334	0.13294679
183	0xbe04121b	-0.12897532
184	0xbe2b9073	-0.16754322
185	0xbc983047	-0.018577708
186	0xbc37c84c	-0.011217188
187	0xbe2412a3	-0.16022734
188	0xbea700b5	-0.32617727
189	0x3ede72d6	0.43446988
190	0x3c764bae	0.015032692
191	0xbea9cefb	-0.33165726
192	0xbd538277	-0.051638093
193	0xbdabceaf	-0.08389031
194	0x3dfb1d5a	0.12261458
195	0xbde4037f	-0.11133479
196	0xbd1ac5ea	-0.0377864
197	0xbbef4cd5	-0.0073028603
198	0xbd4b88cd	-0.04969101
199	0x3d49cbef	0.04926675
200	0xbe6e16ed	-0.23250933
201	0x3d0361ef	0.03207582
202	0xbd5f38fb	-0.0544977
203	0x3c72d574	0.014821399
204	0x3e5372d8	0.20649278
205	0x3e282af3	0.16422634
206	0x3df851f6	0.12125008
207	0xbd27443f	-0.04083657
208	0xbc2d0dc2	-0.010562362
209	0xbc992b97	-0.018697543
210	0x3e605157	0.21906029
211	0x3ea1287e	0.31476206
212	0x3e1d192d	0.15341635
213	0x3da57cc4	0.08080438
214	0xbe9aae6c	-0.30211198
215	0x3e2298d2	0.15878609
216	0x3e9e39f5	0.30903593
217	0x3e6fbf98	0.23412931
218	0x3cca5684	0.024699457
219	0xbe1d6bb4	-0.15373117
220	0x3da77eac	0.081784576
221	0x3e5f5b12	0.21812084
222	0xbe39a445	-0.1812907
223	0x3e105754	0.14095813
224	0xbc775c13	-0.015097636
225	0x3e5add7d	0.21373554
226	0x3d682efa	0.056685425
227	0x3e2e258d	0.17006512
228	0x3d529681	0.051413063
229	0xbbc696ac	-0.006060442
230	0xbe148b14	-0.14506179
231	0x3e0e052a	0.13869157
232	0xbd1554a9	-0.03645769
233	0xbceee4ae	-0.029161777
234	0x3e9fbecb	0.3120025
235	0xbe32ab86	-0.17448243
236	0xbd996cb4	-0.074914366
237	0xbe3602f2	-0.17774561
238	0xbf05b632	-0.52231133
239	0x3f1ce826	0.6129173
240	0xbee50b91	-0.44735387
241	0xbe5709a6	-0.20999774
242	0xbdfa9a3d	-0.1223645
243	0xbd44d3ce	-0.048053555
244	0x3d8b95be	0.068156704
245	0xbe54c4ec	-0.20778245
246	0xbe92dee3	-0.28685674
247	0xbed1fe2d	-0.41014233
248	0xbdef4082	-0.11682226
249	0x3c3c7cba	0.0115043465
250	0xbe98737a	-0.29775602
251	0x3c3dbd34	0.011580754
252	0xbdce1e38	-0.100643575
253	0xbd5ed969	-0.054406557
254	0x3ea47bc9	0.3212569
255	0x3d177b0a	0.036982574

rnn.weight_hh f4 [512, 128]
0	0xbeb96b35	-0.36214605
1	0x3e14811c	0.14502376
2	0xbe987db1	-0.29783395
3	0x3d0cfe91	0.03442246
4	0x3e32ffdc	0.17480415
5	0xbe0019f9	-0.12509908
6	0xbe7d5362	-0.2473884
7	0xbd8c0a9e	-0.068379626
8	0x3ea71ce9	0.32639244
9	0xbe38ec8c	-0.18058985
10	0x3eb1d382	0.3473168
11	0xbdc25b18	-0.09490031
12	0x3d391f18	0.04519567
13	0x3d920caa	0.07131322
14	0x3f1252db	0.5715768
15	0xbe91e266	-0.2849304
16	0x3d799a6a	0.060938276
17	0x3e1220fd	0.14270397
18	0xbcac2a8f	-0.021016387
19	0xbe9b030b	-0.3027576
20	0xbe5d0849	-0.21585192
21	0x3f9f2cde	1.2435567
22	0xbed26c2b	-0.4109815
23	0xbe55cd1b	-0.20879023
24	0xbe310f0d	-0.17290898
25	0x3e4e59b5	0.20151408
26	0xbed069ac	-0.4070562
27	0x3da101e9	0.078616925
28	0x3e2c2b92	0.16813496
29	0xbcc96928	-0.024586275
30	0x3e9c46a7	0.30522653
31	0xbd8ef070	-0.069794536
32	0x3da49533	0.0803627
33	0xbd4fa71a	-0.05069647
34	0x3e659d63	0.2242332
35	0xbe76f597	-0.24117123
36	0x3ecd6a1a	0.40120012
37	0xbdb94a56	-0.090473816
38	0x3e84cfc9	0.25939777
39	0xbda2ea7d	-0.07954881
40	0x3e74c88b	0.23904626
41	0x3ea5d5d4	0.323897
42	0x3eaf28b1	0.34210733
43	0xbbee9dee	-0.0072820103
44	0xbeef394f	-0.4672341
45	0xbdb1815d	-0.08667252
46	0x39dd81cc	0.0004224911
47	0x3e76329b	0.24042742
48	0x3f998eb0	1.199667
49	0x3db5d115	0.0887777
50	0xbdec155f	-0.11527514
51	0xbdab10a7	-0.083527856
52	0x3cfb98f4	0.030712582
53	0x3e2d7069	0.16937412
54	0xbee94c2f	-0.45565936
55	0xbec3fc61	-0.38278487
56	0xbf051535	-0.51985484
57	0xbe5e3aea	-0.21702161
58	0x3eee22af	0.46510836
59	0xbdceb2cb	-0.10092696
60	0x3e416947	0.18887816
61	0xbd35d652	-0.044393845
62	0xbde0adf9	-0.10970683
63	0x3eaddab1	0.3395591
64	0x3d89db61	0.06731296
65	0xbda2a5d4	-0.079417855
66	0xbe030a9d	-0.12797017
67	0x3e8b205f	0.27173135
68	0xbe675961	-0.22592689
69	0x3d612d63	0.054974925
70	0x3d27f033	0.041000556
71	0xbf6139f9	-0.87979084
72	0x3d87e608	0.06635672
73	0xbe8f368b	-0.279713
74	0x3e3d90e4	0.18512303
75	0xbe35d16d	-0.17755671
76	0x3d55a8b1	0.05216283
77	0x3c908b16	0.017644446
78	0x3d1eddc7	0.038785722
79	0xbe0f42e8	-0.13990366
80	0x3eb70f38	0.35753798
81	0x3e8ec263	0.2788268
82	0x3c385b56	0.011252245
83	0x3e315f83	0.17321591
84	0xbdc9129a	-0.09818001
85	0x3dbe8b58	0.093039215
86	0xbcdcf2c2	-0.026971225
87	0xbe2af304	-0.16694266
88	0x3e6bdb00	0.2303276
89	0x3e02707b	0.1273822
90	0xbc8bf1b9	-0.017083036
91	0xbe3f8963	-0.18704753
92	0x3e45dfeb	0.19323699
93	0xbeb4d4b5	-0.35318533
94	0xbcd9198b	-0.026501438
95	0xbc09e186	-0.008415585
96	0xbe76fba2	-0.24119428
97	0xbf5bd5e8	-0.8587327
98	0x3e449a74	0.19199544
99	0xbe98556a	-0.29752666
100	0x3d30622e	0.04306238
101	0x3e580bca	0.21098247
102	0xbda3b239	-0.07992978
103	0x3f1e1c70	0.6176214
104	0x3d31c171	0.04339737
105	0xbdfa38b1	-0.12217844
106	0x3df3ef02	0.119108215
107	0x3e90db6d	0.2829241
108	0x3e925a91	0.28584722
109	0xbb1a02ef	-0.0023500284
110	0xbe5f0a3a	-0.21781245
111	0xbd2c9119	-0.042130563
112	0xbe020196	-0.12695917
113	0x3ee64348	0.44973207
114	0xbdf929dd	-0.12166188
115	0xbda6024b	-0.08105906
116	0xbea01548	-0.31266236
117	0x3dd23db7	0.102656774
118	0xbdec6bab	-0.115439735
119	0x3e6bce41	0.23027898
120	0x3eddf2b2	0.43349224
121	0xbe6ccda4	-0.2312532
122	0xbd4e35af	-0.050344165
123	0xbefacccc	-0.48984373
124	0x3dcbc0b2	0.09948863
125	0x3f2f6f08	0.68528795
126	0xbe795ffe	-0.24353024
127	0xbf00e9a1	-0.5035649
128	0x3e11acfe	0.14226148
129	0xbf066915	-0.5250409
130	0xbcd8e9d3	-0.026478684
131	0x3c193a40	0.009352267
132	0x3db9160d	0.09037409
133	0xbad2106b	-0.0016026621
134	0x3e1e0475	0.15431388
135	0x3d755487	0.059895065
136	0xbd4344f7	-0.047673192
137	0x3e8f8160	0.28028393
138	0x3ea2f36e	0.31826347
139	0x3d5af371	0.05345482
140	0xbd88cfc8	-0.06680256
141	0x3dc6a029	0.09698517
142	0xbd98b9b2	-0.074572936
143	0x3f3c19a7	0.7347664
144	0xbde361df	-0.11102652
145	0xbe689eac	-0.22716779
146	0xbec05fda	-0.3757313
147	0x3dd305ea	0.103038624
148	0xbdef6214	-0.11688629
149	0x3daa2e90	0.08309662
150	0xbe1946c3	-0.149684
151	0xbf06bd1d	-0.52632314
152	0x3de1144e	0.10990201
153	0x3d4696e4	0.048483744
154	0x3c946092	0.018112455
155	0x3d016555	0.03159078
156	0xbe48cfa0	-0.19610453
157	0x3f23abe4	0.6393416
158	0xbe459b73	-0.1929758
159	0x3c4cc123	0.012497219
160	0xbd727368	-0.05919209
161	0x3e1d9283	0.15387921
162	0xbe211531	-0.1573074
163	0xbe78c56d	-0.24294062
164	0xbd9aaf3b	-0.07552954
165	0xbec2e42b	-0.38064703
166	0x3f84d898	1.0378599
167	0x3ec224cd	0.37918702
168	0xbdb63897	-0.088975124
169	0xbd4602ae	-0.0483424
170	0xbd71ff21	-0.0590812
171	0x3ef06cef	0.4695811
172	0x3ed55f45	0.41674247
173	0xbed67445	-0.41885582
174	0x3ecdfe64	0.40233147
175	0x3d11f288	0.035631686
176	0x3d2bd545	0.041951437
177	0xbc0a277e	-0.008432267
178	0xbf13735f	-0.5759792
179	0xbdd210f1	-0.102571376
180	0x3e6e67b5	0.23281749
181	0x3e908ed1	0.2823396
182	0x3f0f0009	0.5585943
183	0x3e456a77	0.19278894
184	0xbf496031	-0.786624
185	0x3d959469	0.073036976
186	0xbe6a61f8	-0.22888935
187	0xbe440fd1	-0.19146658
188	0xbe123c18	-0.14280736
189	0xbe99a758	-0.30010486
190	0x3ecd3baf	0.40084597
191	0x3e345727	0.17611371
192	0xbe4c0d02	-0.19926837
193	0xbe80c6db	-0.25151715
194	0xbeee95fe	-0.4659881
195	0x3ef0ee50	0.47056818
196	0x3e80185d	0.25018588
197	0xbedf5190	-0.43616915
198	0xbe876755	-0.26446024
199	0x3e11c615	0.14235719
200	0xb9914502	-0.0002770797
201	0xbd5dab84	-0.05411865
202	0x3e5b1034	0.213929
203	0xbd9fb9c2	-0.07799102
204	0x3e86abfa	0.26303083
205	0x3d7b2f98	0.061324686
206	0x3c17baaa	0.009260813
207	0x3cb7e8e9	0.022449927
208	0xbcfb5d8f	-0.03068426
209	0xbe4d2743	-0.20034508
210	0x3e0dd3ba	0.13850299
211	0x3f48fc05	0.7850955
212	0x3d84f340	0.06491709
213	0x3d452991	0.048135344
214	0xbebc27ba	-0.3674906
215	0xbe573153	-0.2101491
216	0x3e9664e7	0.29373857
217	0xbd4b7ffc	-0.049682602
218	0x3e59bef3	0.21264248
219	0x3ef1790b	0.4716266
220	0xbe6b6d47	-0.22990905
221	0x3eaa26ff	0.33232877
222	0xbeeec978	-0.46638083
223	0x3da4c3b3	0.08045139
224	0xbefd40ef	-0.49463603
225	0x3e3058e8	0.17221415
226	0x3f026f23	0.5095083
227	0xbf1c0a94	-0.6095364
228	0xbf81d881	-1.0144197
229	0x3f0656cd	0.524762
230	0xbd5c8fc4	-0.053848043
231	0xbe811faf	-0.25219485
232	0x3e34fbb1	0.17674138
233	0xbe876caf	-0.26450107
234	0xbd5f1877	-0.05446669
235	0x3d46e2e5	0.048556227
236	0x3e7733a5	0.24140795
237	0x3e0248b6	0.1272305
238	0xbf0ebf50	-0.5576067
239	0xbea2b73e	-0.31780428
240	0xbdb1cd6c	-0.08681759
241	0x3eb79d52	0.35862213
242	0x3df6c1d9	0.12048692
243	0x3e805f53	0.25072727
244	0x3e6ee436	0.23329243
245	0x3dc08977	0.09401219
246	0x3e8e1d3c	0.2775668
247	0xbd60d5a6	-0.05489125
248	0x3e3a12db	0.18171255
249	0x3d254469	0.040348444
250	0xbf039268	-0.51395273
251	0x3e93be9f	0.2885637
252	0x3eb9cc34	0.36288607
253	0x3d4b90eb	0.04969875
254	0xbd2db29e	-0.04240667
255	0x3f3d02a2	0.7383214

rnn.bias_ih f4 [512]
0	0xbe1c19e9	-0.15244259
1	0xbdf9b932	-0.12193526
2	0xbda74c03	-0.08168795
3	0xbe98d3d3	-0.2984911
4	0xbe7d6d75	-0.24748786
5	0x3d0d523a	0.034502245
6	0xbdb65af5	-0.089040674
7	0xbd899a95	-0.06718937
8	0xbdfd694c	-0.123735994
9	0xbec8da6b	-0.3922914
10	0xbda3e5cf	-0.08002817
11	0x3de7670c	0.112989515
12	0xbe73c43b	-0.23805325
13	0xbeaf0799	-0.34185484
14	0xbdab5c12	-0.083671704
15	0xbd6ba7ad	-0.057532955
16	0xbe1bbf40	-0.15209675
17	0x3dd3d633	0.1034359
18	0xbd820354	-0.06348291
19	0x3d55d106	0.052201293
20	0x3eae34aa	0.34024554
21	0xbe692dea	-0.22771421
22	0x3dd61d41	0.104547985
23	0x3d7c7d55	0.061642963
24	0xbe41b800	-0.18917847
25	0xbe3b8584	-0.18312651
26	0xbe79406b	-0.2434098
27	0x3db71476	0.089394495
28	0xbe5d15ed	-0.21590395
29	0x3e39cfeb	0.1814572
30	0xbdc9c1f1	-0.098514445
31	0xbe20242e	-0.15638801
32	0xbe9e4d2f	-0.3091826
33	0x3b522b3c	0.0032069227
34	0xbd623dd0	-0.05523473
35	0xbd32dc74	-0.04366727
36	0xbe36307b	-0.17791931
37	0xbe3deda0	-0.18547678
38	0xbe823e85	-0.25438324
39	0xbba4d17d	-0.0050298558
40	0xbe39e81f	-0.18154953
41	0xbe5e9fc8	-0.21740639
42	0xbe912d3e	-0.2835483
43	0xbed00882	-0.4063149
44	0x3db3fcc0	0.087884426
45	0x3e7df80b	0.24801652
46	0x3d88c4c4	0.06678155
47	0xbea6d536	-0.32584542
48	0xbdff2ff6	-0.1246032
49	0xbea7598f	-0.32685515
50	0xbe936330	-0.28786612
51	0x3c17e682	0.009271266
52	0xbf00fd1d	-0.5038622
53	0xbe06b4ac	-0.13154858
54	0xbeabd251	-0.33558896
55	0xbdb4a689	-0.088208266
56	0x3e75e471	0.24012925
57	0xbe7c317b	-0.2462825
58	0xbe94ef5f	-0.29088876
59	0x3b27c8ed	0.0025601939
60	0xbc39284e	-0.011301113
61	0xbd148254	-0.036257103
62	0x3d1937e7	0.03740683
63	0x3e5c914b	0.215398
64	0xbeb8b8bb	-0.36078438
65	0x3ee35893	0.44403514
66	0x3e8ba995	0.27277818
67	0x3d3d1123	0.04615892
68	0x3e86bd52	0.26316315
69	0x3d94c6c5	0.07264475
70	0xbdf44ade	-0.11928342
71	0xbeb5370c	-0.3539356
72	0xbd628cae	-0.055309944
73	0x3d31e226	0.043428563
74	0xbdd15db7	-0.10222953
75	0xbd0cf589	-0.034413848
76	0x3e39d6f3	0.18148403
77	0xbd106050	-0.0352481
78	0xbe42a24c	-0.19007224
79	0x3d648cf4	0.055798486
80	0xbdba93c4	-0.09110215
81	0x3deb3726	0.11485128
82	0xbedac0b0	-0.42725134
83	0x3ab08bc0	0.0013469383
84	0x3e684f75	0.2268656
85	0xbdba3b18	-0.090933025
86	0x3e607d2f	0.21922754
87	0xbb0824c2	-0.0020773862
88	0x3ddd6eb1	0.10812128
89	0x3e3171e9	0.1732861
90	0x3dcdd182	0.10049726
91	0x3de0236c	0.10944256
92	0xbe4fc7fe	-0.20291135
93	0xbd33229a	-0.04373417
94	0xbeb04459	-0.34427145
95	0x3d84f284	0.06491569
96	0xbddd8b0f	-0.10817539
97	0x3ca96e0f	0.020682363
98	0xbdde2a5f	-0.108479254
99	0xbe4f8d72	-0.20268801
100	0xbe0402c6	-0.12891683
101	0xbe44ee7a	-0.19231597
102	0x3c794bf0	0.015215859
103	0xbd75fadb	-0.060053688
104	0xbe1bb42a	-0.15205446
105	0x3d2155b1	0.039388362
106	0x3e29d647	0.16585647
107	0xbecaa369	-0.39577797
108	0xbecea8ac	-0.4036306
109	0xbd3350cf	-0.043778237
110	0xbd2d73e0	-0.042346835
111	0xbe04e8de	-0.12979457
112	0xbe4fe95b	-0.20303862
113	0xbef39a65	-0.4757873
114	0xbe7af07d	-0.24505801
115	0xbeafc904	-0.3433305
116	0xbe596de3	-0.21233325
117	0xbe848521	-0.2588282
118	0xbde69db8	-0.11260551
119	0xbd8ac733	-0.067762755
120	0xbecf4e19	-0.4048927
121	0xbea83c69	-0.3285859
122	0x3e6509fd	0.22367091
123	0x3e63fa15	0.22263367
124	0xbec3edcd	-0.38267365
125	0xbd8c50af	-0.06851327
126	0xbe341818	-0.17587316
127	0xbe2cf508	-0.16890347
128	0x3e922c76	0.28549546
129	0xbd77f64e	-0.06053763
130	0x3eac7bbc	0.33688152
131	0x3e0935c3	0.13399415
132	0x3ddd7e15	0.10815064
133	0x3e08e5b4	0.13368875
134	0x3dfb85c0	0.1228137
135	0x3e5443df	0.20729016
136	0x3d8688c0	0.06569052
137	0xbddbe961	-0.10737873
138	0x3e6b64b5	0.22987635
139	0x3e312921	0.17300846
140	0x3e40c396	0.1882461
141	0x3da486f3	0.08033552
142	0x3dc9e6b2	0.09858455
143	0x3ea908e0	0.33014584
144	0x3e838b8b	0.256924
145	0x3df3fb1b	0.11913129
146	0x3e897934	0.26850283
147	0xbd325e04	-0.04354669
148	0xbee9d709	-0.4567187
149	0xbc8777ba	-0.016536582
150	0x3da0ad6d	0.07845578
151	0x3de56a5e	0.112019286
152	0x3e49b84d	0.19699211
153	0x3e4558fc	0.19272226
154	0x3e7a2b33	0.24430542
155	0x3e9baa06	0.30403155
156	0x3e93751e	0.2880029
157	0xbc56627e	-0.013085006
158	0x3eb0f879	0.3456457
159	0x3d64d04f	0.05586272
160	0x3e4a4d75	0.1975611
161	0x3d1c53df	0.038165923
162	0x3b8df62c	0.0043323245
163	0x3e0ca5c1	0.13735105
164	0x3e770509	0.24123015
165	0x3e902be6	0.28158492
166	0x3e11833f	0.14210223
167	0x3c0db17a	0.008648271
168	0x3df8b0ae	0.12143074
169	0x3e15ba67	0.14621888
170	0x3d793336	0.060839854
171	0x3d02554a	0.03181962
172	0x3c86a768	0.016437247
173	0x3e8cee63	0.27525625
174	0x3e0164c7	0.126361
175	0xbda4b63d	-0.08042572
176	0xbcf16c0a	-0.029470462
177	0x3e99e9c0	0.3006115
178	0xbdfcec61	-0.12349773
179	0x3e2bb8a9	0.16769661
180	0xbd8a0365	-0.06738929
181	0xbc8220e3	-0.015884822
182	0x3d3e4c08	0.046459228
183	0x3eb1b2c3	0.34706697
184	0x3e2f8a1c	0.17142528
185	0x3e417f68	0.18896258
186	0x3e709a2e	0.23496315
187	0x3d2b5e47	0.041837957
188	0x3e6c2f29	0.23064865
189	0xbbbb0975	-0.0057079145
190	0xbe189722	-0.14901403
191	0x3d385b03	0.04500867
192	0x3e5e1729	0.21688522
193	0x3e8479b7	0.2587411
194	0x3c5c59eb	0.0134491725
195	0x3dbbee29	0.09176285
196	0x3ed95930	0.42450857
197	0x3e9b5e75	0.30345502
198	0x3e0da385	0.13831909
199	0xbcbafffb	-0.02282714
200	0x3da5abf2	0.080894366
201	0xbcaaf181	-0.020867111
202	0x3e50a504	0.20375448
203	0x3e8417f2	0.2579952
204	0x3c090b52	0.008364515
205	0x3e96dea6	0.29466742
206	0x3c7883c6	0.015168136
207	0x3de8df87	0.113707595
208	0x3e5c24a2	0.2149835
209	0x3e1e192e	0.15439293
210	0x3dc09ec7	0.094052844
211	0xbe1433b9	-0.14472856
212	0x3d2f88a4	0.04285492
213	0x3e2da659	0.16957988
214	0x3e9681c8	0.2939589
215	0x3e6545bb	0.22389881
216	0x3e8d70e5	0.27625194
217	0x3db2de74	0.08733836
218	0xbd3f9a58	-0.046778053
219	0x3e5654f6	0.20930848
220	0x3d8bc0f4	0.06823912
221	0x3d049353	0.03236706
222	0x3de902ed	0.11377511
223	0x3e6f9915	0.2339824
224	0xbd1209b5	-0.03565379
225	0xbe2aca9a	-0.16678849
226	0x3db7a149	0.089663096
227	0x3e62fd54	0.2216695
228	0x3e229366	0.1587654
229	0x3e64d710	0.22347665
230	0x3d4650a9	0.048416767
231	0xbe285dfd	-0.16442104
232	0x3e82e2a6	0.25563544
233	0x3e3e5fb1	0.18591191
234	0x3e45399d	0.19260259
235	0x3d65872e	0.05603712
236	0x3e73510a	0.23761383
237	0x3b13c60e	0.002254847
238	0x3e406b88	0.1879102
239	0x3e686d87	0.22698031
240	0x3e6c41d8	0.23071992
241	0x3e4ca84e	0.19986078
242	0x3ea822b8	0.32838988
243	0x3d218998	0.03943786
244	0x3df41449	0.119179316
245	0x3d1203cb	0.03564815
246	0x3e6c181f	0.23056076
247	0x3e2baa9a	0.16764298
248	0x3e0f742b	0.14009158
249	0x3e84d4e2	0.25943667
250	0x3e62bd62	0.22142556
251	0x3e537853	0.20651369
252	0x3d8a5a8c	0.06755552
253	0x3e43c0dc	0.19116539
254	0x3e18b441	0.14912511
255	0x3e27a4b2	0.1637142

rnn.bias_hh f4 [512]
0	0xbcbf7a7a	-0.023373831
1	0xbe0960f1	-0.13415886
2	0xbd35b95d	-0.04436623
3	0xbece4bf7	-0.40292332
4	0xbe6d837a	-0.23194686
5	0xbca06c08	-0.019582763
6	0xbcfab5c9	-0.03060426
7	0xbd12bf65	-0.03582706
8	0xbe344b34	-0.17606813
9	0xbe9386fd	-0.28813925
10	0xbde9c253	-0.114140175
11	0x3e07637b	0.13221543
12	0xbea5000b	-0.32226595
13	0xbec0a20a	-0.37623626
14	0xbe2177cc	-0.15768355
15	0xbd509f39	-0.050933097
16	0xbe1984d8	-0.14992082
17	0x3cd5c7d1	0.026096256
18	0xbd981bc3	-0.0742717
19	0x3dae2824	0.0850375
20	0x3ed6f424	0.4198314
21	0xbe63db7b	-0.22251694
22	0x3deace86	0.114651725
23	0x3e054368	0.13013995
24	0xbe8860f8	-0.2663648
25	0xbe8c2c36	-0.2737748
26	0xbe58ff20	-0.21191072
27	0x3ce089d4	0.027409472
28	0xbe823311	-0.25429586
29	0x3e1c6d05	0.15275963
30	0xbdb05293	-0.086095
31	0xbe92be5e	-0.28660864
32	0xbe883b3d	-0.26607695
33	0xbced229a	-0.028947163
34	0xbd7c89ae	-0.06165474
35	0x3d881791	0.0664512
36	0xbe8bfb87	-0.27340338
37	0xbd0934b2	-0.03349752
38	0xbeaaef22	-0.3338557
39	0xbd8a3b05	-0.06749538
40	0xbe887edf	-0.26659295
41	0xbe5a9696	-0.21346506
42	0xbe972cff	-0.29526517
43	0xbec53a72	-0.38521153
44	0x3d78c3f7	0.06073376
45	0x3ec02036	0.37524575
46	0x3dfc10c2	0.12307884
47	0xbe955acf	-0.29170844
48	0xbe5eff4d	-0.21777077
49	0xbe5550b7	-0.20831572
50	0xbec0777a	-0.37591153
51	0xbdd9e595	-0.106394924
52	0xbef0dc2b	-0.47042975
53	0xbe389439	-0.18025292
54	0xbec58699	-0.38579252
55	0xbe44d4f0	-0.19221854
56	0x3e7a86fd	0.24465556
57	0xbeafc15f	-0.34327218
58	0xbee9807a	-0.45605832
59	0xbccafeba	-0.024779666
60	0xbdbf0f65	-0.09329108
61	0xbd2daace	-0.04239922
62	0xbd0677c0	-0.032829046
63	0x3d9d2e82	0.07674886
64	0xbeba0d7f	-0.36338422
65	0x3eb4f0a3	0.3533984
66	0x3e91dfa3	0.28490934
67	0x3c655265	0.013996695
68	0x3e9ba2e3	0.3039771
69	0xbcf98b73	-0.030462002
70	0xbe0b6ee0	-0.13616514
71	0xbe9a6a9d	-0.30159464
72	0x3d94ef0f	0.07272159
73	0x3db7e873	0.08979883
74	0xbe6cd73b	-0.23128979
75	0xbcd25ea6	-0.025679898
76	0x3dc4198a	0.09575184
77	0xbd4d0784	-0.050055996
78	0xbe5f72aa	-0.21821085
79	0x3d5e2dae	0.054242782
80	0xbe13ca1f	-0.14432572
81	0x3dd89008	0.10574347
82	0xbede367e	-0.4340095
83	0x3ad30ecc	0.0016102432
84	0x3e93a548	0.28837037
85	0xbd7ef65a	-0.062246658
86	0x3e6435dc	0.2228617
87	0xbbc137e3	-0.005896555
88	0xbaeafcb0	-0.001792809
89	0x3e2e2d8e	0.17009565
90	0x3e445184	0.1917172
91	0x3de8b22a	0.11362107
92	0xbe4cdfda	-0.20007268
93	0xbdb194f6	-0.0867099
94	0xbee2ff57	-0.44335434
95	0x3dbd0282	0.09228994
96	0xbe23c6e9	-0.15993847
97	0x3c6f48f3	0.014604795
98	0xbd521080	-0.051285267
99	0xbe73685c	-0.23770279
100	0xbe10bb44	-0.14133936
101	0xbe845cbd	-0.25852004
102	0x3d09f842	0.033684023
103	0x3dd9982a	0.10624726
104	0xbe033f1b	-0.12817042
105	0xbccb8418	-0.02484326
106	0x3e2e80b0	0.17041278
107	0xbed56adb	-0.41683087
108	0xbed656b3	-0.4186302
109	0x3dafeb45	0.08589796
110	0xbd4f45b8	-0.0506036
111	0xbd7bdf9f	-0.06149256
112	0xbe4d8199	-0.20068969
113	0xbeea087d	-0.457096
114	0xbe2b10df	-0.16705655
115	0xbea63850	-0.32464838
116	0xbe029f86	-0.12756166
117	0xbebc6850	-0.36798334
118	0xbd9aac30	-0.075523734
119	0xbc459d4c	-0.012061428
120	0xbeaf66b2	-0.34258038
121	0xbe8c3905	-0.27387252
122	0x3e361140	0.17780018
123	0x3e907385	0.28213134
124	0xbeaee849	-0.34161595
125	0xbe5360ef	-0.20642446
126	0xbe2b8864	-0.16751248
127	0xbdd4f608	-0.10398489
128	0x3e9475b2	0.28996044
129	0xbd1b9b24	-0.03798975
130	0x3e9edda4	0.31028473
131	0x3e0ce074	0.13757497
132	0x3e424d52	0.18974808
133	0x3d1a300c	0.037643477
134	0x3dae8ec4	0.08523324
135	0x3e96b3a1	0.2943392
136	0x3e1cdd18	0.15318716
137	0xbc95a71b	-0.018268159
138	0x3e41804a	0.18896595
139	0x3e29fdc7	0.16600715
140	0x3e264300	0.16236496
141	0x3e0470fe	0.12933728
142	0x3dcbb7ea	0.09947188
143	0x3ebb9156	0.3663432
144	0x3e5afdc5	0.21385868
145	0x3e000bd9	0.1250452
146	0x3e9abcd8	0.302222
147	0xbd17e1f0	-0.037080705
148	0xbefebe79	-0.49754694
149	0x3d0dc11c	0.03460799
150	0x3d05bd10	0.032651007
151	0xbcc8da70	-0.024518222
152	0x3d9a98ca	0.075486735
153	0x3e268bc7	0.16264258
154	0x3e73e787	0.2381879
155	0x3e77c032	0.2419441
156	0x3e9d099c	0.30671394
157	0x3ce7197a	0.02821039
158	0x3ea563b0	0.32302618
159	0x3dda13a4	0.106482774
160	0x3e9ca5a2	0.30595118
161	0x3de3f755	0.11131159
162	0xbd91a496	-0.071114704
163	0x3e68a4f0	0.22719169
164	0x3e14b26a	0.14521185
165	0x3e4c9c10	0.19981408
166	0x3e3d8e35	0.18511279
167	0x3da3e8e0	0.08003402
168	0x3d304035	0.043029983
169	0x3da0a72a	0.07844384
170	0x3e4ca49c	0.19984668
171	0x3d40b968	0.047051817
172	0x3dc60e0c	0.09670648
173	0x3e89bce1	0.26901916
174	0x3e26491e	0.1623883
175	0x3cfb2d37	0.030661209
176	0xbe441933	-0.19150238
177	0x3e6fde89	0.23424734
178	0xbdaf326c	-0.08554539
179	0x3dc6ba1f	0.097034685
180	0xbdd941eb	-0.10608276
181	0x3da9b7c5	0.082870044
182	0x3ddc66bd	0.10761783
183	0x3eaf5067	0.3424103
184	0x3e16ef82	0.14739802
185	0x3db86d66	0.09005241
186	0x3dd39e32	0.10332908
187	0x3e0a247e	0.13490483
188	0x3e76e665	0.24111326
189	0x3da6d1c0	0.081454754
190	0xbe0bb40b	-0.136429
191	0xbcd53189	-0.026024597
192	0x3ddfc4da	0.10926218
193	0x3e680c32	0.22660902
194	0x3d23fc3f	0.040035482
195	0x3d2e18bc	0.042504057
196	0x3efe8a48	0.49714875
197	0x3e4c6067	0.1995865
198	0x3dd7fffe	0.105468735
199	0xbd59d1a5	-0.05317845
200	0x3cb9673f	0.02263224
201	0xbcac2f57	-0.021018667
202	0x3e4f3442	0.20234779
203	0x3e8963fb	0.26834092
204	0xbdad903c	-0.08474776
205	0x3ebd1f6c	0.36938035
206	0x3e2090a1	0.15680172
207	0x3c3a2cf5	0.011363258
208	0x3e6fce42	0.23418525
209	0x3e081d17	0.13292347
210	0x3e57518a	0.21027198
211	0xbda63840	-0.081161976
212	0xbd5269c3	-0.051370393
213	0x3e70c4c9	0.23512568
214	0x3e8c89c4	0.27448857
215	0x3e565046	0.2092906
216	0x3eb4429b	0.35207066
217	0x3e169cb1	0.1470821
218	0x3da48dd7	0.08034866
219	0x3e22f84e	0.15915033
220	0x3b8f6f83	0.004377307
221	0x3e183314	0.14863235
222	0x3e0e9cb4	0.13926965
223	0x3de0a03c	0.10968062
224	0x39c0c518	0.0003676794
225	0xbd8e7cd1	-0.069574006
226	0x3d818d5e	0.06325792
227	0x3e182eee	0.14861652
228	0x3e0c27af	0.13687013
229	0x3e3b6089	0.18298544
230	0x3e038a5f	0.12845753
231	0xbe6ee342	-0.2332888
232	0x3e1acef7	0.15118013
233	0x3e53bd15	0.20677598
234	0x3da0c5b9	0.078502126
235	0x3d093543	0.03349806
236	0x3e43c731	0.19118954
237	0x3d7a7299	0.061144445
238	0x3dfcfe0c	0.12353143
239	0x3e64ea7a	0.2235507
240	0x3e2d34cf	0.16914676
241	0x3e1136ed	0.14181109
242	0x3eba1ea2	0.36351496
243	0x3d0de222	0.034639485
244	0x3dc0500a	0.09390266
245	0xbce5c752	-0.028049145
246	0x3e7b6862	0.24551538
247	0x3e52bcbb	0.20579807
248	0x3dcde4e8	0.10053426
249	0x3e001cb3	0.12510948
250	0x3e3d0dbe	0.18462273
251	0x3ddb6a60	0.10713649
252	0x3dc47075	0.09591762
253	0x3e3ffedb	0.18749563
254	0x3ea0f68f	0.3143811
255	0x3e1fadbf	0.15593623

conv1d.weight f4 [1, 128, 1]
0	0x3dce1562	0.10062672
1	0x3e31762b	0.17330234
2	0xbe808e8a	-0.2510875
3	0xbf8e4c5e	-1.1117055
4	0x3e9deb07	0.30843374
5	0xbee3a843	-0.4446431
6	0xbeea8e34	-0.45811617
7	0xbce08a2e	-0.02740964
8	0x3ec87aaa	0.39156085
9	0x3fa27565	1.2692076
10	0x3e3e056e	0.18556759
11	0xbe8f4d95	-0.27988878
12	0x3ec6bcad	0.38815823
13	0xbcae02ad	-0.02124151
14	0x3dfac9d5	0.12245528
15	0x3d62e1b1	0.055391017
16	0x3ea1c8d5	0.31598535
17	0xbedd6d56	-0.4324748
18	0x3e7add8a	0.24498573
19	0xbe9d7dfd	-0.30760184
20	0xbfa078ca	-1.2536862
21	0x3e60b8e6	0.21945533
22	0xbf807a6c	-1.003736
23	0xbec99c7a	-0.39377195
24	0xbe3f1de1	-0.18663742
25	0xbee4ffa0	-0.44726276
26	0xbf1a24ea	-0.60212576
27	0xbe10308a	-0.14081016
28	0x3efb29db	0.4905537
29	0xbedba459	-0.42898825
30	0xbd390758	-0.04517302
31	0xbe4c04c7	-0.19923697
32	0xbcea1ce0	-0.028578222
33	0x3f0091a5	0.50222236
34	0x3f48c1f6	0.7842096
35	0xbf6b3c77	-0.9188914
36	0x3ea98ca5	0.33115116
37	0xbf014b42	-0.5050546
38	0xbc59f09b	-0.013301994
39	0xbe88a10a	-0.26685363
40	0x3eee2265	0.46510616
41	0x3e7b1d62	0.24522927
42	0x3e645665	0.22298582
43	0x3f222693	0.6334011
44	0xbefff949	-0.49994877
45	0xbf60549d	-0.8762911
46	0x3eb7aea5	0.3587543
47	0x3f562408	0.8364873
48	0x3fc22b6d	1.5169502
49	0xbe927097	-0.28601524
50	0x3e05150d	0.12996311
51	0xbea3aca0	-0.3196764
52	0x3f387af6	0.72062624
53	0x3f263e67	0.6493897
54	0x3e281f8f	0.16418289
55	0xbe10bfef	-0.14135717
56	0xbe86dff5	-0.2634274
57	0xbea8fda4	-0.33006012
58	0x3e8f468c	0.2798351
59	0xbee8faa7	-0.45503733
60	0xbfe555b4	-1.791678
61	0x3f016cee	0.5055684
62	0xbcc80b0b	-0.024419328
63	0xbf0ca97d	-0.5494612
64	0x3da91175	0.08255283
65	0x3b4399d8	0.0029846337
66	0xbee92a86	-0.45540255
67	0xbd6ebfbb	-0.058288317
68	0xbe92a3d1	-0.28640607
69	0x3ce90257	0.028443499
70	0xbe7e575a	-0.2483801
71	0xbe64279e	-0.22280738
72	0xbe50fe81	-0.20409586
73	0xc00dbd5d	-2.2146828
74	0x3e512aba	0.20426455
75	0x3e13c852	0.14431885
76	0xbe8f9be7	-0.28048632
77	0xbebd9334	-0.3702637
78	0x3ee6ab71	0.45052674
79	0xbe9137fa	-0.2836302
80	0xbd189f0e	-0.03726106
81	0xbf275194	-0.65358853
82	0xbc96bbf9	-0.01840018
83	0x3ef0c271	0.47023347
84	0xbf231ab8	-0.63712645
85	0x3dd4125a	0.10355063
86	0xbca68b68	-0.020330146
87	0xbf019b88	-0.50627947
88	0xbf05895e	-0.5216273
89	0xbe9d5de1	-0.30735686
90	0xbeb29944	-0.34882557
91	0xbf076879	-0.5289379
92	0x3e96a173	0.2942005
93	0xbf0b8cd4	-0.5451176
94	0x3e210398	0.15724027
95	0x3dc5a4f8	0.09650606
96	0xbed9cd9f	-0.4253969
97	0xbf02d1b5	-0.5110124
98	0x3ee54092	0.44775826
99	0x3ea122eb	0.31471953
100	0xbf1e03f4	-0.6172478
101	0x3e86c477	0.26321766
102	0xbeb49de0	-0.352767
103	0x3f000c84	0.500191
104	0x3e0b0966	0.13577804
105	0xbe92304d	-0.28552476
106	0x3ed13fe6	0.40869063
107	0x3db36b11	0.08760656
108	0x3e8d8236	0.27638406
109	0xbe4c4185	-0.19946869
110	0xbeca4c80	-0.3951149
111	0xbecf926b	-0.40541396
112	0xbebfd88c	-0.374699
113	0x3d8a336f	0.067480914
114	0xbe0ebe1d	-0.1393971
115	0x3df14088	0.117798865
116	0xbd403c49	-0.046932492
117	0x3eacfee5	0.3378822
118	0x3ef05940	0.46943092
119	0x3f6e9180	0.93190765
120	0x3e49a8df	0.19693325
121	0xbf9a6a86	-1.2063758
122	0xbcb61a9e	-0.022229489
123	0xbfd4027b	-1.6563257
124	0x3df0c6f3	0.117566966
125	0x3f6cbeb1	0.9247847
126	0xbe69fe36	-0.2285088
127	0x3e7abf11	0.24486949
